best_weights.npy (npy, 11928 bytes, 1 tensors)

array f8 [1475]
2.568194367031786 0.6000677417485131 -6.679177971955234 -4.037515712583826 2.7623607598488453 12.061952043292042 -1.8631114908874544 -4.0168484004230445
1.6024710100717943 -8.56956194960277 13.33016160367143 -8.136640728249212 -2.5780214204433975 -8.018311426487147 5.099173721132066 0.22834175882253066
6.2688847684251465 0.011353214651103727 -11.475768874573122 -9.91866772465812 -9.812336377624153 -19.009101530006998 12.211927901899948 0.7785027524016801
1.9000407054477575 -1.8500843120094521 16.036149570281488 -6.264851221351965 13.703711863355888 0.25321082412278906 -1.494021621041419 -1.2161375270989372
-6.200777659121535 25.95026360130567 17.953853718154456 -5.623569113044619 -8.048583040395684 -11.131508776622832 -2.390220184005786 -5.198260760368795
5.109867758259587 5.525835464016636 0.11773319210440303 0.029930386612310456 -10.645994841145233 10.43227097450258 -1.873106656591803 -10.91433528295293
6.10936480132062 0.5269518546992631 -0.2427647987688244 3.575528077198422 7.65937792226171 -0.46955033664250156 -9.021114866092773 11.253656650602128
-6.360866564776327 -1.9591126421877996 -8.558357409201347 12.445314852010815 -3.816251819935783 4.398231857408218 1.4321873760807928 10.541762932859257
3.9094362444109834 -3.7387412399317017 1.7039603751236523 14.590559347720852 4.452242597038755 1.9037563294187374 -0.6772805626844227 -0.15977447167256698
-7.617166356838025 4.402025978775993 -10.836670655688469 -9.152019233118809 15.146513158871908 -0.6175830632300554 -4.582148009210354 8.700886794439068
7.36605585289491 -3.896977507444677 -13.460901631987168 17.750336870240382 15.77849455826616 13.316998255489448 -2.302879992365848 15.916041314598706
-9.154635797715978 -0.5192143146768373 6.713255626321666 -10.806257969537704 7.528603318631358 -4.166282688214276 -4.431126178880579 -15.022226983605876
-13.63287508964245 -2.2778016228654665 4.590190116021253 -2.1252857681850017 -17.35198360072237 -11.669789777624313 19.009484901784678 -1.7824663021956848
-5.399100324637745 4.192998025179514 -0.7998148645159129 -3.7983064447457733 -0.5477099421610869 8.577344650359489 11.353924201943963 -5.538871896839813
-13.874579191404349 -12.626457274224837 4.297931268297785 8.296145306982883 14.80575662278848 -8.0811381072254 14.719025781783476 -5.495135882720536
4.744685466098358 1.6533963134829808 -13.280135898164541 -5.055735071292954 2.28329701592554 -1.6346994920244444 12.06286888231844 11.756615181928426
1.9270477365497616 1.7851629732260441 0.6331674339673922 -7.865605654441547 5.041219873222536 -9.3464118155669 -23.477056397490685 -2.675677499726028
-12.904224118455085 -13.217127960314336 -21.01147786265197 -4.713568312966396 -2.4237758575710853 -6.077726390366166 1.2019853542881251 0.7058645572407553
-7.723146794396774 -0.7800478654026801 4.92884564547502 2.5509806228453122 9.713697202613048 -9.323013447006137 -9.137093909230307 3.7382541986525846
-10.184587788837105 -10.02675778855276 5.060025328041993 1.1067590269963998 -9.57590077900454 8.70600042704953 -2.719105010937359 -2.2666796139449366
18.490705052364074 17.71361730186955 11.982711773545917 -4.134741342455177 1.9282765750399613 11.916729588906769 3.3220186462476198 1.3585378673170758
3.7723743886237147 -11.249190595237 13.241030090477505 7.476484345858781 -22.020224282408556 12.644538068422893 9.422819410300736 5.198181637149171
-8.959514129899778 -8.976772278664065 21.22601333171156 -19.258147848271502 -3.626892008774697 -11.13774264821444 3.924712802765553 -1.5262447805781758
10.850607962943519 11.081933425319782 10.405458844382864 0.7255693362707913 -2.2733352516779504 22.393013780818002 5.362528129576293 -6.45105404003017
-0.33331868857300917 -7.315581829091345 -12.607469896374054 7.353830308594952 -17.207432173236725 20.008538042703584 9.322112301200717 -4.50391922621764
3.783080807354454 -9.279123938501924 12.861252672454896 5.535195006206661 13.229269599804658 6.959085055955855 -14.939458760401179 -3.6818919530047145
-5.497431088384178 5.1038397189852835 -10.365346739743723 -3.9292799345912934 5.119517134367383 -13.220273520048888 1.4000621087599048 13.664867919685665
6.384393882876107 -12.768442607646955 -21.670863808696616 4.9380501273846065 -24.408433112285678 1.128299261500099 -15.522249062089212 14.987902696950792
4.200471427948506 15.08393346063788 0.7679832701980153 3.3745317998205753 -1.9750774982783055 4.606965994527919 1.3606313290152756 -8.80729213386369
-14.602829037747789 -5.785035693130864 -13.30520021663098 19.206808618162867 3.897719036969739 8.26812246337294 -3.94717272850608 21.199997272953546
-7.272909151766024 -2.5719487841297783 3.347722944311997 4.833780449026483 -5.891324364694972 9.735839792871264 -5.483141606561708 7.477872172235342
0.6431538216998414 17.82285256308043 -1.6888349817804866 -4.850096297309846 -8.186466596302903 -6.789964949336975 -3.3331654744129273 0.5267002386236892
00000000: 2f62 017d a98b 0440 d538 c643 c133 e33f
00000010: 68d8 266e 7ab7 1ac0 e088 da84 6a26 10c0
00000020: 9e6f 1a99 5019 0640 2ab8 9f2d b81f 2840
00000030: 5d9d a2fe 4dcf fdbf 413a 03b5 4011 10c0
00000040: 3bbe 50a4 b8a3 f93f 072e b59f 9d23 21c0
00000050: d153 14f1 0aa9 2a40 9443 06c6 f545 20c0
00000060: ed88 c9b1 c99f 04c0 91cf 831d 6009 20c0
00000070: 158a c3cb 8d65 1440 0619 3a81 4d3a cd3f
00000080: 391d 5b87 5613 1940 0034 0cad 5a40 873f
00000090: 197e 59fa 97f3 26c0 3f98 b29d 5bd6 23c0
000000a0: 627e be8d ea9f 23c0 3fb9 557a 5402 33c0
000000b0: 548a 5fd0 816c 2840 9028 ad9a 7ee9 e83f
000000c0: 5f78 2f15 9166 fe3f a9c5 ee01 f299 fdbf
000000d0: 9a1f 2619 4109 3040 a50c 9828 350f 19c0
000000e0: 6ed7 ddeb 4c68 2b40 0470 262c 9b34 d03f
000000f0: 9f3c 1e37 83e7 f7bf 8240 a59f 4c75 f3bf
00000100: 18c7 9ea8 98cd 18c0 e22f b279 44f3 3940
00000110: 32a4 dcc1 2ff4 3140 1a4a cde6 887e 16c0
00000120: 8847 53e0 df18 20c0 cd76 4d1e 5543 26c0
00000130: 045a 84c2 2b1f 03c0 ce74 67de 04cb 14c0
00000140: 6570 722c 8170 1440 1e1d a49c 741a 1640
00000150: 08fa bd31 c323 be3f 1044 a03e 12a6 9e3f
00000160: fd34 f8d5 bf4a 25c0 4dff 049f 52dd 2440
00000170: 08b5 7faf 3ef8 fdbf 36b9 13c1 23d4 25c0
00000180: bc05 9453 fd6f 1840 02ff cf22 cadc e03f
00000190: f882 aabb ea12 cfbf d4f9 eb76 ae9a 0c40
000001a0: 1e46 4ff7 33a3 1e40 3424 edda 1c0d debf
000001b0: e0a7 5691 cf0a 22c0 827f d548 df81 2640
000001c0: 9cbc 3701 8771 19c0 2a07 767f 8658 ffbf
000001d0: 87ff b705 e11d 21c0 7b9e eb4e 00e4 2840
000001e0: b965 bf08 af87 0ec0 ae2c 8f17 ca97 1140
000001f0: 4b2d 604f 3dea f63f 90a1 7df3 6115 2540
00000200: 8056 7c82 8646 0f40 87b4 cd2a f1e8 0dc0
00000210: 2b60 4df4 6b43 fb3f c69d 79cb 5d2e 2d40
00000220: e98e f0ae 18cf 1140 f180 6632 c975 fe3f
00000230: 3c46 5e49 48ac e5bf 94e0 4869 7d73 c4bf
00000240: 3e3e 1b75 fa77 1ec0 edf0 bbb2 ac9b 1140
00000250: e268 9f18 60ac 25c0 7137 0577 d54d 22c0
00000260: b693 d3c5 034b 2e40 ee5e 648e 3dc3 e3bf
00000270: bdf5 939b 1e54 12c0 cea0 48a2 da66 2140
00000280: a8c5 7258 d776 1d40 a6c7 1d8b 022d 0fc0
00000290: a71d 784c fbeb 2ac0 5aaa be13 16c0 3140
000002a0: f8bb b7d6 968e 2f40 b66e 6898 4da2 2a40
000002b0: a697 6e58 4c6c 02c0 fbf8 ff5d 03d5 2f40
000002c0: 45f6 5b6c 2c4f 22c0 c0dd a456 679d e0bf
000002d0: 4df5 d2ae 5fda 1a40 8c9b 36d8 cd9c 25c0
000002e0: a450 3830 4a1d 1e40 ca15 4f02 46aa 10c0
000002f0: 54f7 1a24 79b9 11c0 185a cf55 610b 2ec0
00000300: 4eef 2834 0844 2bc0 fddc a70e f038 02c0
00000310: 56ef 3acc 5a5c 1240 1012 28d3 9500 01c0
00000320: b6d4 e598 1b5a 31c0 de2e 8caf ee56 27c0
00000330: 91f8 3e9a 6d02 3340 b870 a262 fb84 fcbf
00000340: 8291 68c1 ad98 15c0 b95a 3946 a1c5 1040
00000350: a26a be57 1598 e9bf f9f3 427d ee62 0ec0
00000360: 56d4 2800 d786 e1bf 0ea1 cfb7 9927 2140
00000370: 7539 918d 35b5 2640 56a4 d608 ce27 16c0
00000380: 07b0 01d8 c8bf 2bc0 2246 0202 bf40 29c0
00000390: dd2d f7e4 1431 1140 f2b5 905b a097 2040
000003a0: e8d2 ce21 8c9c 2d40 20fc 19ef 8a29 20c0
000003b0: 527b b325 2470 2d40 7471 9de6 04fb 15c0
000003c0: bdcb aad3 8efa 1240 28c8 5bb1 4f74 fa3f
000003d0: c61a f2f8 6d8f 2ac0 1cc6 519d 1239 14c0
000003e0: fea2 d339 3144 0240 5b86 90a7 ba27 fabf
000003f0: d0fc a259 3020 2840 5114 ac10 6383 2740
00000400: 28fe e401 30d5 fe3f 6393 c00c 0790 fc3f
00000410: b107 b959 e842 e43f 8a3c 2454 6176 1fc0
00000420: 86be dd8a 352a 1440 9a9d b5e3 5cb1 22c0
00000430: f091 395e 207a 37c0 10bb df9a c967 05c0
00000440: bd09 b276 f6ce 29c0 cc31 6165 2b6f 2ac0
00000450: dbb7 9436 f002 35c0 3a9c dea6 b1da 12c0
00000460: 3cd1 c898 e463 03c0 a0a2 c281 974f 18c0
00000470: fa03 affe 543b f33f 6325 9844 7196 e63f
00000480: c690 e097 80e4 1ec0 0a03 e7f0 26f6 e8bf
00000490: 8e63 1950 23b7 1340 78cd 5e87 6868 0440
000004a0: 80f0 40b8 696d 2340 821e be04 62a5 22c0
000004b0: fb3f 412c 3146 22c0 c2c7 3ad1 f1e7 0d40
000004c0: b797 684a 825e 24c0 aa7e 6532 b30d 24c0
000004d0: f67c 9347 773d 1440 7f09 18f4 48b5 f13f
000004e0: 7f21 8777 dc26 23c0 8f47 52e3 7869 2140
000004f0: e9ec c220 bac0 05c0 2e3a e3eb 2822 02c0
00000500: bbe2 a7d8 9e7d 3240 b563 9d9f afb6 3140
00000510: 398c 61ff 25f7 2740 760e 6da2 f989 10c0
00000520: 4a08 b789 38da fe3f 9c42 a794 5dd5 2740
00000530: 8eaf 1283 7e93 0a40 2312 e833 92bc f53f
00000540: 3a41 9b9f d22d 0e40 0207 e2e8 957f 26c0
00000550: d6e7 c74b 687b 2a40 e213 2a83 ebe7 1d40
00000560: a287 276b 2d05 36c0 82ce c9e4 004a 2940
00000570: 1ab6 26c9 7bd8 2240 cae4 8820 f0ca 1440
00000580: 5bf0 9f6f 45eb 21c0 cc00 017f 1bf4 21c0
00000590: 4129 7c02 dc39 3540 dfdb 35fa 1542 33c0
000005a0: 127d 1ef5 df03 0dc0 dfb0 5234 8646 26c0
000005b0: 7c90 70d3 cf65 0f40 2562 a4a5 7f6b f8bf
000005c0: 831e 0de3 82b3 2540 3c65 8c2d f329 2640
000005d0: 28ff 384d 98cf 2440 646e 482f dd37 e73f
000005e0: e367 7664 ca2f 02c0 9a7d 178d 9c64 3640
000005f0: 13a4 f192 3a73 1540 0ea2 3a1c e1cd 19c0
00000600: 8a44 a4e8 1755 d5bf 02a3 0ce2 2743 1dc0
00000610: 4f76 544b 0637 29c0 e1fe 0e7e 526a 1d40
00000620: a030 6046 1a35 31c0 0a2f 968c 2f02 3440
00000630: bf97 4ee7 eba4 2240 b8b8 d166 0304 12c0
00000640: 85b3 cdde bf43 0e40 ffca 3655 e98e 22c0
00000650: a092 3b1c f6b8 2940 7d8f e228 0a24 1640
00000660: 8b41 32d3 6275 2a40 a2a6 9564 1ad6 1b40
00000670: 3fba 17bd 00e1 2dc0 8e7c acc4 8374 0dc0
00000680: b37e 4293 5efd 15c0 3f45 94f5 546a 1440
00000690: 8dcc 55ba 0ebb 24c0 6230 7f51 2a6f 0fc0
000006a0: 9ead 1db3 627a 1440 ce91 d9b0 c770 2ac0
000006b0: a2e1 9786 a766 f63f 426b 6691 6954 2b40
000006c0: fbf0 ce8c 9e89 1940 ad64 394f 7189 29c0
000006d0: 066c 06bb bdab 35c0 8880 6c36 90c0 1340
000006e0: d8de 8b12 8f68 38c0 ece6 c386 830d f23f
000006f0: 6614 a43a 640b 2fc0 5511 de61 cef9 2d40
00000700: f748 cb61 48cd 1040 a8f5 9853 f92a 2e40
00000710: f904 aca6 5193 e83f c454 3c87 0aff 0a40
00000720: acbb e2dc ea99 ffbf 4920 617e 886d 1240
00000730: ba89 405b 25c5 f53f 7486 0265 559d 21c0
00000740: 6c69 f401 a634 2dc0 4fc2 9065 e023 17c0
00000750: 0953 ea33 439c 2ac0 5c8a db68 f134 3340
00000760: cf40 8651 872e 0f40 fc04 f758 4789 2040
00000770: 0bc6 a44b cf93 0fc0 ea9f 7205 3333 3540
00000780: ea74 267f 7517 1dc0 4b98 56e2 5993 04c0
00000790: 611c 8ff7 22c8 0a40 a673 c28a ca55 1340
000007a0: b6f8 9155 b790 17c0 7af4 4afe bf78 2340
000007b0: e713 5eac bcee 15c0 56ad 9d52 57e9 1d40
000007c0: 88f1 cf52 b794 e43f 38dc 2f77 a6d2 3140
000007d0: 3a68 71d4 7705 fbbf ff95 cda4 7f66 13c0
000007e0: b6d5 b98c 785f 20c0 ee8d 5992 ec28 1bc0
000007f0: 2b14 06a9 52aa 0ac0 7ce4 7575 bada e03f
