best_weights.npy (npy, 11928 bytes, 1 tensors)

array f8 [1475]
00000000: 61e9 794c 8f24 02c0 6670 c330 3321 0540
00000010: 1597 3072 1046 f73f 198d 6077 af84 1140
00000020: d428 29da ee39 b03f ae3b 57a4 eee2 1140
00000030: 0a3c c105 b7cd 07c0 692d db9b e4f2 0bc0
00000040: 1481 3424 dae2 04c0 38a5 0101 91fc 00c0
00000050: 9174 51ed 4fe4 e83f 3c8d 4e61 6e54 f6bf
00000060: 98be 80ad d0c8 c4bf bac2 fba5 feb0 10c0
00000070: f25d a70b 2f12 f6bf 6032 883d f207 06c0
00000080: 1fa6 286b 102d f3bf 7539 5603 594f 06c0
00000090: ef0e 6ca4 6ff8 e2bf 1182 a065 84b7 e8bf
000000a0: ecef 96b1 e4e8 f9bf 0255 f81c 4502 1440
000000b0: 0e1f 4f8c 2bc9 0540 c555 a349 de3d 0cc0
000000c0: 40c6 6169 0bbc 0cc0 0e9f 4bd2 aa74 d23f
000000d0: 606b fa55 468f 1b40 895e 94b6 b87e efbf
000000e0: ee37 e492 a2e5 19c0 2022 eb0a 4631 e2bf
000000f0: ff3b 4f6e 1d53 26c0 c72e f93b 6d36 1340
00000100: 7792 2083 fa7e e2bf d122 4d29 fcfe 0ac0
00000110: 2bf6 c937 fc03 e8bf fe03 3e45 71b2 fe3f
00000120: 8630 7113 cef0 d93f 8a16 eb22 5754 dbbf
00000130: 2b22 3f52 76e7 d8bf 10fb 310d 8952 a4bf
00000140: 4e3b 4aee 5895 05c0 ec2b ed74 490b 1ec0
00000150: a8d8 e39a cad0 f03f f88e 75b5 b115 ea3f
00000160: f59f ac4e e971 1140 3747 53ae 11aa 17c0
00000170: 0cd4 ace5 e181 12c0 2e32 a0b0 fc41 06c0
00000180: 2276 113c 12e7 0340 ce45 4a74 9c29 15c0
00000190: cc9a d57a 6c39 df3f 1089 fb48 0bbf 1640
000001a0: 7055 e2df 7046 fe3f 8324 8500 7910 1540
000001b0: 70e7 30e8 f9c3 b43f b7dc dd88 89da 05c0
000001c0: 2676 a2dd bdb0 f73f 66a0 160c bca5 0ac0
000001d0: 0c87 3d48 ebb5 9ebf 2b4f 0599 6d38 1940
000001e0: 21e0 895f a8aa 0b40 574d f20b 7cc9 ce3f
000001f0: c7d0 6b29 d728 f33f a42e 8b4e 17fc fb3f
00000200: 8200 333c 9d27 0840 591b e305 95bf 16c0
00000210: 02b8 35e3 ce68 0e40 43b5 40c5 1cc2 f3bf
00000220: 67b2 d5fe 8177 0140 cf8b 47ba e645 00c0
00000230: b77d 1ded 0018 0940 df61 73c3 9213 fabf
00000240: ae09 9310 2138 fcbf be64 65e7 ef49 de3f
00000250: 2f28 a0a2 23f6 07c0 e862 34a2 a0a6 c33f
00000260: 0563 0b0f f0de 09c0 fc07 a024 171b ef3f
00000270: d650 41c0 8fa9 1940 9c93 f145 95bb 11c0
00000280: a0c0 ca9c e61b f43f 7e4c 791f 4ccd 15c0
00000290: 0fd2 c584 05b9 0240 a0fb 8c97 6526 0ac0
000002a0: a86c 348a 7d62 0c40 1d83 5497 b769 1ec0
000002b0: bf71 6c09 e5f7 09c0 49f1 dfbf 1138 efbf
000002c0: f5ea 9e5b d302 0740 e624 d521 670d c83f
000002d0: c427 89d7 e2c5 04c0 9b42 8b96 833f ec3f
000002e0: b4d2 0e1c d869 0040 6350 c794 ae31 ffbf
000002f0: c4e7 179e b92a 0ec0 381c 1f50 de1b 0440
00000300: 7dae 184d 2070 20c0 8873 73df 38bd 0d40
00000310: 8878 c6b1 a022 e1bf 5662 49de 4f5c 18c0
00000320: da4a d1da 0307 e53f 3159 241e 5d96 0ac0
00000330: a5f4 1866 932d 01c0 92cf 532d d7d5 f43f
00000340: 2864 f808 5639 983f 8229 2c86 a001 0dc0
00000350: 26f1 f18d 3c9f ffbf 2946 7484 4d65 f9bf
00000360: 7b8c 0340 3139 16c0 9002 cf99 bd01 febf
00000370: e084 46c5 8e63 1340 c8d1 5f4a 0a5f 0a40
00000380: 2912 5fe3 f2e6 02c0 406d 2899 8d85 0d40
00000390: 0a1c 3311 0237 f13f 87bf fbba 13a1 d7bf
000003a0: c98d 0eb6 f47a f8bf d2bd fc1a 9200 ba3f
000003b0: e363 1da1 862d c4bf 6919 4bd0 1f34 1540
000003c0: 679d 76af dac8 12c0 f55b c5ee e945 e2bf
000003d0: 0a74 fd0b bd9b 0140 d13a 0aa0 d59f 1040
000003e0: 5fe3 557e b2bb 0c40 d351 cac5 2b4c fbbf
000003f0: cc9b e037 e95f febf f47c 4f83 e182 1ac0
00000400: 1834 94f9 c9da b6bf ee36 6326 388a 0cc0
00000410: 70e8 100e 8bfa dfbf 7aee 96a7 2fdd f8bf
00000420: 8697 6d2b 37f3 1d40 63cc b260 7db3 1040
00000430: 2564 cba2 299a e93f fc7d e71a e99f 15c0
00000440: 082c c35e abcd a7bf bdc5 2a98 4d10 0540
00000450: 6775 d8bf 9093 0540 9a62 5064 b6f4 f9bf
00000460: ad07 8c43 4f4a 20c0 5820 ccc3 6003 d3bf
00000470: 7879 3ba6 38cb 11c0 3fc5 7e2a 757c 0840
00000480: 5e35 f0f8 427c f93f c237 1c6c d428 f5bf
00000490: c08f 2571 3872 09c0 a55d 19ae 47d5 f0bf
000004a0: af1f b7c3 72c3 0640 973b 2f26 5eb0 d8bf
000004b0: 6674 cf1b b161 1a40 8c59 830f 64b5 e03f
000004c0: 9f1f aab3 9adc 1140 23fc b9c5 88e8 07c0
000004d0: 6828 eb12 12ca f3bf 64d2 86ec 0d74 e63f
000004e0: 1efc 13c7 c764 0e40 e596 581d 64dd d73f
000004f0: 35b7 4426 fea7 1040 58d7 309e 5cc4 bd3f
00000500: 7e07 7eb2 ab6c f43f 5754 a52e d31d ef3f
00000510: d537 1788 134a 1340 ace1 a03d 5cf0 f33f
00000520: 8bfe e165 bf60 1540 2a6f c930 3507 f7bf
00000530: cb52 6a60 2203 13c0 d0b3 bc5f f459 f73f
00000540: fe6e 7d0f 2c43 f2bf 9019 7459 096d cd3f
00000550: beb9 5c2e 0c4f 05c0 2ffa c477 f6d0 dcbf
00000560: b249 211d 20b2 e53f e8e5 9a7c 0fcc 0940
00000570: 685a b061 c302 17c0 8522 90dc df88 14c0
00000580: de70 5633 4237 f3bf e0b9 3b73 8964 1740
00000590: addf 7f37 bf9a d6bf 4c91 f0fd e0b2 0440
000005a0: 634b dc1c 40cb e03f 3ae4 804b b180 ff3f
000005b0: 8e49 8974 0123 e6bf 0608 68e9 a1e6 04c0
000005c0: c747 63eb 04c9 03c0 ae2b 5d23 7978 1e40
000005d0: 054f 3286 a3f6 19c0 1157 48fb 016a 0e40
000005e0: 9ff3 8372 cf01 fbbf a842 7beb 1b64 14c0
000005f0: 026f 350c 74bb 2340 cdff 2747 c793 03c0
00000600: f64b 43c8 bd8e 07c0 a636 a969 bf5d 1440
00000610: 16d6 3826 df79 1140 9662 52cd 3c84 c7bf
00000620: 1006 1a34 8c42 22c0 832c 9728 3229 17c0
00000630: bbb8 5f6b 4874 1040 1816 0e6c fceb e43f
00000640: cec5 48f3 636c ecbf 0e3f 5ea6 8803 0940
00000650: ac8b f17d 896c fb3f 8c55 03f4 13fa c13f
00000660: 7444 c4f6 b085 03c0 e85d e5d5 b7e6 0d40
00000670: 723b 30f5 2e22 0a40 14a4 e6c0 48b2 0440
00000680: 16fd 3e3e d77d fbbf 7207 b2a0 d6ef cb3f
00000690: 0b22 de4b 41ff 0040 8004 9c81 c89a b03f
000006a0: 0f22 2702 1d14 0e40 fa27 f006 9098 0340
000006b0: bc1a 996e f07c 0240 7f29 0e13 ae8b 03c0
000006c0: 0c4a 26cf 455f 10c0 2d3e 5e79 a7e8 f83f
000006d0: ff62 3cc3 887a bcbf 8833 9637 b2f0 2240
000006e0: 2dd9 ad77 7307 df3f 0e06 7bd7 431c fd3f
000006f0: c7e2 26e0 b6b2 2240 9242 19c0 f61f 12c0
00000700: c041 3f7c fd97 01c0 8e0c 9cc9 d20d e33f
00000710: a395 d5b7 6bfa d83f 8f2c f707 3574 1440
00000720: 55ca 224e 4b9c 0e40 80af 2e1d 55a5 05c0
00000730: b98b e971 7cd0 05c0 e29d 666e 2780 d6bf
00000740: ac26 1bc4 f426 03c0 f130 c66f fa41 1040
00000750: e225 9bd7 2c73 f8bf 55d6 0aa1 3f1f 01c0
00000760: e10e 8164 83f6 0040 a69f 2688 b7db 0fc0
00000770: 3b01 b84a eba8 1540 d423 5571 5ed8 c9bf
00000780: 1aa5 84db 1d2c d13f 86db 92f1 a6dc d63f
00000790: 3956 2d14 c059 f4bf b5da 24e0 6ead 07c0
000007a0: b52d 1f6a 44ab f7bf d6af 7916 2807 febf
000007b0: 6493 c4f8 0e4e f03f e6d6 0785 7b9a 20c0
000007c0: 4051 c827 0883 01c0 175b cfd3 c53b fabf
000007d0: 193e c500 01db 03c0 1a0c 0a1f e695 0240
000007e0: 5d90 486a 12d4 1ac0 2315 7f67 b3da 1b40
000007f0: b504 f90d 6d84 05c0 8b25 d1da 2109 10c0
-2.267851445646713 2.6412109193461673 1.4546055279292365 4.379575600879684 0.06338398767653369 4.471613471817291 -2.9754467439265726 -3.493600099207175
-2.6107676342509283 -2.1233234480502254 0.777870143425064 -1.3956130791710413 -0.16237839195081416 -4.172846406451464 -1.3794393973565744 -2.753880005568405
-1.198501986111644 -2.7887439976395236 -0.5928266726845929 -0.7724019989873928 -1.6193587243169487 5.00221677079867 2.7232275926252276 -3.530209136292543
-3.5918186409915336 0.28837080513629665 6.889916747483625 -0.9842189374930551 -6.474252982310629 -0.5685148442508456 -11.162333914920962 4.803151070674807
-0.5780003129080588 -3.3745043970742263 -0.7504864778163144 1.9185650543952302 0.405322569834205 -0.4270227280615947 -0.3891273310842133 -0.039692194805857395
-2.697923528328295 -7.511022402740291 1.0509744692222203 0.8151482147336244 4.361241559301551 -5.916083072502992 -4.626838291810611 -2.7822202490699715
2.4878277485684217 -5.290635888131375 0.48787986751123635 5.686566486694815 1.8921974893067635 5.266086586119061 0.08111535948492388 -2.7317076389986954
1.480649820099083 -3.3309250778584554 -0.029990841182900005 6.305105582188655 3.4583289588881745 0.24052382071804843 1.1974708192838521 1.749045664607288
3.0193428710045405 -5.687091915117741 3.801175856663577 -1.2348907189546743 2.1833534153905023 -2.0341314843258043 3.1367205166459047 -1.629778636435837
-1.763703407996768 0.4732627639510375 -2.9951851563573864 0.1535225669874969 -3.2338563132619833 0.9720569339117442 6.4155874290338115 -4.433186619634309
1.2568117260634963 -5.450485698488704 2.3403425572271384 -3.268748458852727 3.548091010784976 -7.603239407094205 -3.2460423217982846 -0.9755944011263092
2.8763796956894745 0.18790902282697813 -2.5966240729075896 0.8827531757652481 2.051681727602352 -1.9496293841994194 -3.7708618498845414 2.513607622098359
-8.21899643827714 3.7173936326129855 -0.5354770157025692 -6.090148423413288 0.6571063302784197 -3.3234197954981473 -2.147253797184549 1.3022071619606987
0.02365621976614221 -3.6257944566943374 -1.9763761086206357 -1.587232129477693 -5.555851936546897 -1.8754249580526086 4.8472243141452225 3.2964063463680056
-2.3627679599178646 3.6902114835226314 1.0759297057973094 -0.36920636425110626 -1.5300185309978238 0.10157120856160098 -0.1576393400853525 5.300902609428115
-4.696146718611408 -0.5710343993658841 2.2010441719744493 4.156088352798819 3.5916490430794705 -1.7060964323219323 -1.898415773650174 -6.627813388563698
-0.08927595465884541 -3.567489910033024 -0.49966694234502196 -1.554000525137694 7.487515142978628 4.1752829655771135 0.8000686816768662 -5.406162662867697
-0.046491008107828746 2.6329604995778184 2.6970534313137935 -1.6222442549243739 -8.145135985225204 -0.2970811760028531 -4.448458287601504 3.060770351403931
1.59283730737237 -1.3224682066970534 -3.180771717032229 -1.0520703125710977 2.84543373968696 -0.3857646344085252 6.59540217832282 0.5221424391736931
4.465433890589252 -2.9885421225913134 -1.2368336428649176 0.7016667956982698 3.7992091706251037 0.3728876387198013 4.1640554408493715 0.11627749311523183
1.2765309307437458 0.9723907385874878 4.82234013215744 1.246181717620952 5.344480125349615 -1.4392597108589578 -4.753060823907343 1.4594615688067627
-1.141399441249575 0.22989003055426993 -2.66359745235897 -0.45025407501444453 0.677993828672973 3.2246389136096134 -5.752698446644537 -5.133666464135449
-1.2009908681275685 5.848180580635443 -0.35319500369905193 2.5873432005920787 0.5248108447725425 1.9689190816263946 -0.6917731548403923 -2.6126135096428724
-2.473153914420411 7.6176496053330265 -6.490858170338247 3.8017615920497367 -1.6879419778117393 -5.097762755773751 9.866119748613986 -2.4471574362832826
-2.9446979184663133 5.09155049414918 4.369015309542666 -0.18372306848029457 -9.129975917984694 -5.790230402209207 4.113557508199103 0.6538068876695347
-0.8882312537809243 3.12672548270337 1.713998310057586 0.14044427313517038 -2.440278938164335 3.737655325948925 3.2666911273330976 2.5870528288255716
-1.7182228499876309 0.21825678678947785 2.124636261669598 0.06486180462163027 3.759820954150434 2.4494934598960727 2.311005462691666 -2.443203114385312
-4.093039738380423 1.5568003407423803 -0.11124472395421135 9.470109688840026 0.48482977569018965 1.8194006364068431 9.349051480051811 -4.531214715520621
-2.199213953667112 0.5954374253928039 0.390284471059511 5.11348354765063 3.82631550830528 -2.7057287483093546 -2.7267998599431533 -0.35157190114338566
-2.394021541670403 4.064431902381544 -1.5281189367400363 -2.1402580815727483 2.120367798985044 -3.9822836529528614 5.41496006725384 -0.2019155553228119
0.2683176654559972 0.35721753684213586 -1.2719116962592933 -2.959684134602265 -1.4793132920629948 -1.8767472150748197 1.0190572469229773 -8.301723630148853
-2.188980398941709 -1.6395929597690093 -2.481935506839147 2.3231928276959595 -6.707101498297644 6.963574998027329 -2.6896611301059132 -4.008918208136843
