best_weights.npy (npy, 11928 bytes, 1 tensors)

array f8 [1475]
00000000: dee7 ef26 21ee ef3f 5de8 0f97 c004 c43f
00000010: 3e92 e166 2bce d43f aa05 fc40 5b61 f53f
00000020: 4f87 4b33 ca32 c03f 9ee6 6a77 668c b03f
00000030: 56e1 9b62 15d7 f2bf f091 1740 72e3 f63f
00000040: 1e36 942d 713c c63f 3880 f0da d3cb e2bf
00000050: bf4f 0bee 294f f23f b4ce 779f 5d2e eabf
00000060: 0ac2 3f11 36ca cc3f 8443 e72c a856 d9bf
00000070: 8055 2813 6929 833f 0bea ef9e db8b f93f
00000080: 2cd1 9409 5853 debf f30c 9d4d 43a2 f13f
00000090: 42f7 c6da ae7b e83f 60f9 3773 98f0 0440
000000a0: c1e0 7dd0 1daa f03f fefe fcd1 3bd3 dc3f
000000b0: 8df4 6214 e801 d0bf 0f77 9c5f d89d 02c0
000000c0: 0ad6 a01c 04ca e03f 2fae 49ec 4f9b eabf
000000d0: e7b1 00da 46da bc3f b0dc c483 f5fc 0bc0
000000e0: 834c f14f c4c9 cdbf e27e 1f8b 7153 f83f
000000f0: f208 c691 ffc9 f13f da75 b276 da42 fbbf
00000100: 202b fb6d 7020 e53f b02c c790 8fe1 e03f
00000110: 25b1 6d09 156f bebf 7419 a45d ca3f a5bf
00000120: 9da0 bf39 742b 00c0 0f83 7bdb 2fcf f13f
00000130: c142 f166 9a4f c2bf 7ff0 8a7f aa83 e3bf
00000140: 9cf7 d109 7102 fabf 30eb 977c 6bf4 bb3f
00000150: 5ec0 35e0 a0e9 d9bf 6eea 8d53 d420 0140
00000160: 5839 a303 0a0f d1bf 2e70 2283 e5dd 0140
00000170: 202b da56 c876 f0bf 32bf a29c b43a 05c0
00000180: 5457 b0e2 de99 fcbf 82bb ae60 8d21 f9bf
00000190: 5d25 a897 969d 0240 8a7c 6cb2 635f ee3f
000001a0: a6f2 71cb ebd9 ea3f b2da ed90 b562 0340
000001b0: ca2c 3c26 3584 e43f 46cb 140c 6f4f e53f
000001c0: a863 9458 0f83 05c0 675a f1a6 78b1 e33f
000001d0: 1c0f 246b 9e4f b4bf 79ca 7b4d b2dd fa3f
000001e0: 4c41 dee3 47e6 f53f 57e6 6c0a 1736 f8bf
000001f0: 46b4 fa4b dbf6 dd3f 52b7 884e 2326 f33f
00000200: 5ed5 b42c f968 e1bf 5b6e 4701 9c62 0140
00000210: fe65 be84 2540 e3bf 98d1 adc3 6ee0 f83f
00000220: 5409 1ce1 13f1 f23f 9192 a1b3 a2ac e0bf
00000230: 5482 07d2 12aa e63f 65f1 7f35 2cf3 ea3f
00000240: ef2b 47b6 c73a fd3f 9ed6 08d7 c402 cd3f
00000250: db09 68f9 76f3 f9bf 6191 7f5e 7ee7 f9bf
00000260: b4fa 6da0 614c dfbf b9e6 05ec 7ee4 e13f
00000270: b46f a88a 3263 f6bf bb79 a79b 9e1d f13f
00000280: 67e7 be49 b2ef e8bf 66e9 e934 900c e53f
00000290: 9f96 8945 f3de f73f 6269 6d5f 6c48 0b40
000002a0: 72a1 74b1 33f5 01c0 5bef 2d87 f18c e13f
000002b0: a2b3 2c58 ed52 f3bf bc29 a2bb 93c6 bbbf
000002c0: db44 c510 8400 dfbf 4bc7 6f3b fbb1 a5bf
000002d0: 38e9 32d9 69b7 cebf c2a9 309e 8dab cfbf
000002e0: 105f e3c9 f947 cdbf d072 5122 5643 a33f
000002f0: e0f6 5a77 5c98 d4bf 9d54 feca 885a fd3f
00000300: 7212 783b 52af ef3f 384f 6f04 17ce c1bf
00000310: 5620 7d96 14bc f2bf 25dc a889 a4c3 f33f
00000320: 0627 a2d1 bdcf a2bf 9ad5 1870 fe57 fdbf
00000330: cd43 ded8 f2fb ebbf 4da1 e3a7 0eb1 0040
00000340: da2a 6cec 8ee8 e53f bac5 57a3 794b d63f
00000350: cad9 794d 7d7e ffbf aefc badb 7372 e9bf
00000360: 31ba ba1b 4b91 de3f 07d8 29be a9bc ec3f
00000370: 3dbc 1212 e3dc eebf 1ad1 2049 891e ef3f
00000380: f478 c801 9a49 d13f fed0 3d71 704d f5bf
00000390: 8cd9 9cc3 5678 943f 4b1d aae5 e66c b83f
000003a0: a2ad d616 0cbe f2bf 3e06 05a1 2b8e e0bf
000003b0: 7764 2998 cdb6 e2bf 1b78 084c 8b30 f83f
000003c0: e256 1202 1553 c2bf e991 6b4a 7ca4 e7bf
000003d0: 24a6 377f 62fd fbbf ca0e bbae 079a e93f
000003e0: b54e bfd2 6065 c0bf eb61 32d5 3e7d fa3f
000003f0: e626 0526 ca8f ffbf e487 ef82 753d ebbf
00000400: 0b5c 8aa3 f27d d3bf 9e0b e3a1 f3b0 dcbf
00000410: 0b26 0f9d 16c3 0540 3b92 fc52 f340 e53f
00000420: 0e51 8091 d7ca db3f 4f2a 20b8 3fc6 f1bf
00000430: f14b f24b aee5 edbf 29d3 be9b edcb fabf
00000440: 8149 c05a c2d2 e33f 81c2 941f 5339 d4bf
00000450: 642a fc74 b5fb e6bf f13c 6e8e ce3b e5bf
00000460: fbd0 b049 814f d9bf 8547 e9c2 e513 e93f
00000470: 2a5e 8859 8d20 ed3f d0f8 2f11 4622 cf3f
00000480: 078a 93bd e0cf ffbf 54c2 270b 90fc edbf
00000490: fc2f b04d 6b55 e33f 9de3 18c4 e785 eb3f
000004a0: 7eef e9c3 5c7d f53f 29b3 2abe c4d7 ed3f
000004b0: 5317 dee8 a708 e4bf 80a6 d9ae 1973 0540
000004c0: 9078 5ab9 87f7 0540 405c 9bbb b944 0d40
000004d0: ba9f f926 8cb2 b2bf 78f4 caeb b6ed bcbf
000004e0: a906 214a f894 fdbf 1d96 ed21 5d84 e23f
000004f0: 8ad3 1060 7028 f4bf 0c23 4a6e f64c ec3f
00000500: f8da 44d1 29b0 fd3f dcc0 3f12 2f9a eebf
00000510: e6fd 8ee6 e1aa 0240 6a6d 65b9 f76b dabf
00000520: 6d14 4bad b52a 0240 70cc 9bbd f1ef ecbf
00000530: fb50 65dc ea40 f3bf 7d39 3fe5 7e05 0040
00000540: 4cc2 0384 e203 f73f a93d 523a 7a6f e6bf
00000550: e44f e9d0 5d78 ecbf ca57 0b1b 6403 e0bf
00000560: dd22 01eb 64eb f13f 61f6 52a4 48f5 de3f
00000570: 7d08 a152 6c31 d63f 851b d99d 6d4e e7bf
00000580: 7068 9df0 745b 72bf 2e74 4644 707c f7bf
00000590: cc4f 8265 ab77 fa3f 06fc e801 7898 debf
000005a0: 32b1 6961 5d82 f63f d1dc e59e 759b c53f
000005b0: 652d a5f5 3c38 fc3f 64bc 5751 61e4 f63f
000005c0: 6b28 7d06 29f6 c33f 72e3 6836 a1de e53f
000005d0: bcd2 1e3c af34 0240 a327 637a ae9c f2bf
000005e0: 4f68 3812 117b fabf d48d a5da 89fa 03c0
000005f0: d559 6033 74c5 e23f 9ffa 7dd5 6d7c edbf
00000600: 79b2 6725 dc99 d33f a816 ee45 4e62 f1bf
00000610: 8104 b211 12b9 d1bf 112e 26a7 5f2d dc3f
00000620: 975b 4cb8 b41d f43f 445c 3c6f 6581 ddbf
00000630: cfff 5cd5 b739 fa3f 608b d5f0 d718 c5bf
00000640: 7a6f 9dc4 17fc efbf afb2 eefa e951 fcbf
00000650: 35ea d4d2 8e55 edbf bea4 4c6a eacc fabf
00000660: b795 2426 540e f83f 7cfa 248e ab9b c1bf
00000670: 1892 65af 5d0a e4bf 8042 1da4 afa6 fcbf
00000680: da9e 513a ef69 fe3f bd36 a2d1 91b6 e8bf
00000690: a0a9 c9bb f354 ff3f 4853 3456 5d5d e13f
000006a0: 3658 a739 bc3b d33f 8765 8b0e 006a c8bf
000006b0: b63f 0181 a55b f2bf 8d31 e792 87f3 fa3f
000006c0: 1d63 99df 739f f0bf 5963 12f4 b55d b9bf
000006d0: 5cd8 29a2 b131 f53f 7221 b6ed e845 c5bf
000006e0: 7b38 e05c f780 f2bf b3e1 e40e 18b3 fbbf
000006f0: 8ac1 4269 de1a db3f f7cc e2ce a308 d13f
00000700: e4c9 80b0 8b7b 0040 0ec9 5a8b 7aba 953f
00000710: 27f0 73b5 b605 fcbf 1619 11e8 584f e53f
00000720: 73c4 9b95 7c15 e53f 5917 a2fe 468d d5bf
00000730: f080 38da 46c7 c13f 054e a234 f84b ebbf
00000740: 021e 58b2 4b9e c23f b448 b5e1 0e9a eabf
00000750: 51e1 88cd 2973 f7bf 811a c704 fec7 0140
00000760: 64ca 4377 4297 f03f 44d9 883e b78f 02c0
00000770: 96ab ba14 32a8 f0bf f5fe fed4 f0dc 0040
00000780: 6909 3f23 3d5b fcbf d0cf 0a9d 5b2d 0740
00000790: 244a f762 aa3d f1bf d8ac b2df 1dd4 c93f
000007a0: cae9 ce57 b6f1 fabf c492 6130 472d fb3f
000007b0: 7fe2 8b71 d414 dfbf 80c9 f260 e7fa 04c0
000007c0: a18d 3eb1 7421 e9bf 6035 be66 cbba f73f
000007d0: 7541 7984 98e7 f43f f2eb 35a6 511c d13f
000007e0: 664b 537c 580c d23f 65b3 40fe 7a8d e4bf
000007f0: 158f 3127 3172 dfbf 79f1 5c7a be16 03c0
0.9978185425272803 0.15639502883988401 0.32508359000192744 1.3362686670737767 0.12654998306885054 0.06464233794658944 -1.1775106288824495 1.430528879508639
0.17371954656157212 -0.5873812938843974 1.1443270968056678 -0.8181598772630054 0.2249209961151027 -0.3959141195783149 0.009356327912466211 1.5966449936373717
-0.4738369077270075 1.102114966561939 0.765098025607337 2.6174782754380175 1.041532339497323 0.4503926802317294 -0.25011636725305025 -2.327072855913577
0.5246601637979336 -0.8314590086933488 0.11270563909847163 -3.4985151571705373 -0.23271993545003875 1.5203719553464272 1.1118159956245646 -1.7038216244321718
0.6602098606175311 0.5275342776962102 -0.11888247947871784 -0.041502307825839774 -2.0212177764515915 1.1130827497037818 -0.1430542948387679 -0.6098225108212459
-1.6255960830307918 0.10919830123741003 -0.40488454719070954 2.1410299804386375 -0.2665429149173142 2.233347916115256 -1.0289996521630158 -2.6536648022810363
-1.7875660758049507 -1.5706914688741738 2.3269473884762832 0.9491442189063417 0.8391016934907227 2.4231978724086156 0.6411386248377309 0.6659465061150989
-2.6889941139492812 0.6154139767266543 -0.07933988681548637 1.679125120802068 1.3687209035015995 -1.5132055670968805 0.4681919328675729 1.1968110149131985
-0.5440641282245158 2.1731491184162173 -0.601580390229344 1.5547931331358082 1.1838568490353127 -0.5210736759587055 0.7082609274039648 0.8421841664235613
1.8268506164774825 0.2266470003102556 -1.6219396345555797 -1.6190169993725123 -0.4890369478888872 0.5591425523591261 -1.3992181221319528 1.0697313385240779
-0.7792598190637648 0.6577836068602607 1.4919312206560915 3.4103629546417986 -2.2447275031774376 0.5484550132964431 -1.2077458805390298 -0.10849879580397376
-0.4844064868712629 -0.04237351513428552 -0.23997233491338377 -0.24742288803220275 -0.22875902517147795 0.03762311142847852 -0.3217993894175901 1.8346031121666677
0.9901515161041756 -0.13910186497252552 -1.1709180716007004 1.235264337284897 -0.03674119171144068 -1.8339828852452684 -0.874505446978327 2.0864537350027264
0.6846384637477414 0.34835663749171497 -1.9683812166600654 -0.7952212611779907 0.47761800487470213 0.8980301584367688 -0.9644637444488421 0.9724775722775434
0.2701172845280688 -1.3314060615057879 0.019990306557895063 0.0954117117599839 -1.1713982479221632 -0.517354788295229 -0.584814831915664 1.5118515939752857
-0.1431604633441373 -0.7388287976760327 -1.749361512129675 0.8000524914463878 -0.12809381761927843 1.6555775001526125 -1.972604893222916 -0.8512523228966953
-0.3045622441363213 -0.44830027398364247 2.720257975601958 0.664178526004043 0.4342554970655933 -1.1109006111534148 -0.9342872126893537 -1.6747871478848515
0.6194774410708278 -0.3159988220605002 -0.7182261738647182 -0.6635506421897884 -0.3954776019702561 0.7836788946972183 0.9102236508069315 0.24323345031002086
-1.988251438648719 -0.9370804040791634 0.6041771428440366 0.8600958662055863 1.3431060459979274 0.9325889314837684 -0.62605662805502 2.6812013302013042
2.7458643418058912 3.6585573822772233 -0.07303691817798966 -0.11300223595294934 -1.8488695998825426 0.5786576903016712 -1.2598727943961614 0.8843948511213013
1.8555086302346222 -0.956321273462915 2.333438683737529 -0.4128398237714551 2.2708543337380918 -0.904290075616144 -1.2033489808282514 2.002683440200768
1.4384484440635275 -0.7011080874526004 -0.8896931724834727 -0.50041394502727 1.1199692897663944 0.48372093245766307 0.3467665488170793 -0.7283237536401975
-0.004481751247874852 -1.467880503368416 1.6542161908337105 -0.4780559557584073 1.4068273358526082 0.1688067460888534 1.763730010558754 1.430756871933931
0.15594971482125017 0.6834264815034727 2.2757248589426506 -1.1632523327593638 -1.6550455772144408 -2.4973332483075215 0.5866032603687993 -0.9214390916602787
0.30626586582983567 -1.086500428356354 -0.27692081192078183 0.44026938746603245 1.2572524260665199 -0.46102271902913494 1.6390913328650532 -0.16482066401939743
-0.9995230522285816 -1.76999853153681 -0.9166940801436058 -1.6750282432861208 1.5034982194859887 -0.1375631755890544 -0.626265375682638 -1.7906948481287657
1.9008629110411932 -0.7722863287360365 1.9582402549227496 0.5426470454864125 0.30052095060580386 -0.19073487005406894 -1.147374633717829 1.6844554651644075
-1.0389288648932002 -0.09908616265091776 1.3246322950849594 -0.1661959801388196 -1.1564859035456994 -1.7312241155433241 0.42351494101878784 0.26615233615593986
2.0603250302603886 0.02121917224457897 -1.7513949478152513 0.6659359486155008 0.6588728830376013 -0.3367478834774054 0.13889394431408375 -0.8530236270912047
0.14545580108845974 -0.8313059242593881 -1.465616038198352 2.222652470899732 1.0369286211759112 -2.320173729468623 -1.041063385938036 2.1078812256163197
-1.7722751023107668 2.8971473950314035 -1.0775550714357758 0.20178578779937228 -1.6840117864618258 1.6985542192352776 -0.4856463536121182 -2.622511632355952
-0.7853339635661777 1.4831041348837388 1.3065419363739157 0.2673534510756205 0.2820035184969839 -0.6422705617784287 -0.49134472682475067 -2.386105495416072
