best_weights.npy (npy, 11928 bytes, 1 tensors)

array f8 [1475]
3.2331279264943973 -3.4550148677051165 -1.8849541880626095 -3.760258639915125 -4.555958446125058 -1.993001099739344 2.052598094640479 5.01686763937993
-4.752716793048163 0.2951334707398511 -4.244713957522516 3.381327716488702 3.4984131371654086 0.7285314226666102 -6.047102869260124 -0.7560863941197389
2.499398357509277 0.35485486565819735 0.8949668836118487 1.1102979681630873 -0.877941590687493 5.459594978838958 -2.0420067727152986 0.46761746756364314
-0.9546383919264914 4.119196118599383 -2.5681143197104848 -2.415385834522533 0.34861564254101507 4.194100094555162 -1.7633063130099835 1.7795138324841275
0.049956838708867315 4.7393619172957395 5.561158568164247 -1.1608611884747158 -2.067252395247122 -1.0855057351327433 2.6614908426910935 1.5292921804701072
-1.1686659714740264 0.49692929631373756 -1.6446450583250676 1.3595111997984466 2.650741628963461 0.21449631424235222 1.096188859260265 1.4846320646115414
1.744568455290176 -3.5769859970332796 5.396168274199832 -2.957733485124823 0.5371422932058965 -2.4809655147661895 2.0477660146583845 2.0679869075406097
0.021460592628390725 1.9577003976132576 2.047201941481337 2.673712965050268 1.5950372431934972 2.5778598093103566 4.190032405444637 1.822194878069391
-0.5474549465094957 2.308525380543882 3.110051474906868 -2.711087103057449 -0.6073934988418305 -3.429196799760404 -2.975822940754478 0.5265544225110333
0.4275659469167032 -1.3765119825995753 -0.08609222050737672 1.1808296465769186 -1.9032045720257005 -3.4165272731547867 6.369857339021216 0.8008091920347898
2.401175716009541 -1.5436937126073214 -0.20991388936434424 1.4945237524041444 1.6519251867228086 1.1056799399719937 -1.952143389547161 -0.09901185762845795
4.818312426988128 -3.260602021467736 1.4768748091305415 -6.557385991156731 -0.3396867644273802 1.6414196075120793 -1.4158840944265085 -2.585422553746191
0.9595259839919651 0.031176187344433413 0.1052381524982301 2.2680092260542897 -5.307851511401086 -0.43096905447720757 -2.2210073033396767 -4.556176365555098
-4.029988380555024 2.091349148531903 -1.2514842600118514 -5.106019854452017 3.0225808956048086 0.9147511243848765 -1.3873764686605348 1.9450552935972127
-2.4589365800617125 2.3298196793704298 -0.8266687437990103 1.5877003483150038 -0.29513467133508287 2.1460275947736083 -1.9951650065963376 -6.141661499036481
1.9178543182597276 -4.565450994526938 -0.23163376035847558 3.4622912846841762 -1.102852169965615 -1.586981039440177 -2.085446054664027 0.6097672256399465
2.047392478454064 3.253609582006273 -3.555948221381992 3.518488843523922 -1.0270476291017323 3.3696195067824704 0.4373977523173984 -0.08805841230087655
-6.569287504925183 0.11852043202330417 4.4352800381690125 2.8491530982355617 4.029083591344296 2.7625663170453016 1.186170844374834 -0.023355085461755593
-2.744711740246028 0.6826699694473102 -3.372281852270081 -0.19883618466383954 1.1104272491671574 -1.606971690406691 -0.15112048677551562 -3.0340415145391684
5.278196428987295 -2.6161547680685753 -1.282481381973062 5.403431318259244 2.957401861057703 2.4727254826377494 -2.7005670861239786 4.811453024958796
1.570142210389183 -0.27995193339138724 -2.1051697885385914 1.6384354652679103 4.475026674045534 2.8203301008795303 -1.0009565312072375 1.9379287452462932
2.410200844979626 -0.8717055490024768 -2.4971728254878043 -1.75915757852703 -1.6846417527244422 -0.4645187049678615 -0.5355028006743656 0.44137529434749845
0.8371095178331218 0.19998868182814564 -1.0620461435914108 -1.1865698065674986 1.1279964100869408 1.6299657725086039 1.1670852474291735 2.1953558157221766
-2.6475013593930004 -4.0316104748468735 -1.8833852555325712 -2.0362309724512366 2.722446524675988 1.5561180690660177 1.8217044248437502 -1.2184059548549886
3.9037487352522664 -0.593858888609895 5.415843217715869 -1.7461864150085875 -2.338784411688005 1.8313639382682878 0.16566951602807922 7.4783079472750735
-0.6548316764002099 0.6846366369654865 -4.582579113071808 1.7383961648041133 3.4803340199270902 -1.1208722207035682 0.6943657902377185 -0.4746941593929257
-2.85117930636656 -1.0734957063238073 -1.2892823829204056 -0.8484370219568742 4.220066454894655 1.6040761680625735 0.7010375707308079 4.598506692533029
-1.5868673595006557 5.531148208942272 4.113802069729743 3.379728855541968 4.648967344007345 -1.324376198538707 -3.485843020548684 2.3202453108291987
0.5493213948143272 2.2717409700156845 3.3388674704738066 4.478232328402106 -0.505424984366409 -0.5266811474690282 -5.821017976037684 -2.595603077302488
-3.191969953208808 3.537962644121311 0.9962108004822335 -0.9757835666319511 3.4598816635648695 -6.769690408484073 4.620530490317615 4.39697856970175
4.4555182729926965 1.2713724849042736 -6.154269000146597 -2.0252520424924105 1.0744976975430665 2.4521921122458625 1.9091489861070552 3.731492069359571
-5.8052684227928895 1.8478832184240461 0.21818864234667787 1.45053209240313 5.382050515034066 1.6413872331869246 6.6448967288358585 -4.436933416705447
00000000: 309f a02c 72dd 0940 dfe5 bfd5 dea3 0bc0
00000010: 88fe 02b9 c528 febf c77e 577b 0215 0ec0
00000020: 1d2b c02b 4d39 12c0 3a5c 041f 55e3 ffbf
00000030: 8e80 c28c b86b 0040 76fd 1dc0 4511 1440
00000040: dd2a e530 c802 13c0 aa16 327f 77e3 d23f
00000050: 5bbc b14b 96fa 10c0 c804 bb8b f50c 0b40
00000060: 732d e006 c0fc 0b40 26c4 4e21 2150 e73f
00000070: 7a14 0cbc 3b30 18c0 2c3c f617 dc31 e8bf
00000080: 7d6d e990 c4fe 0340 0405 b52e f1b5 d63f
00000090: b0b5 0397 91a3 ec3f 1b36 61cd c7c3 f13f
000000a0: cca1 79f6 1818 ecbf 9913 ee10 a0d6 1540
000000b0: 842e 98a5 0756 00c0 1959 8ed0 71ed dd3f
000000c0: e891 1ad0 658c eebf 28c7 1c8c 0e7a 1040
000000d0: d75d 3c85 7f8b 04c0 b3f7 f3ce b552 03c0
000000e0: a69c e5fb b74f d63f 490f d92c c2c6 1040
000000f0: dd54 33ae 8036 fcbf 80c8 147f e378 fc3f
00000100: daa8 ee58 f193 a93f b1c5 5a4a 1bf5 1240
00000110: e28a 085a a03e 1640 111d 7b2e e392 f2bf
00000120: fc4f b19f bb89 00c0 c73f 0043 3b5e f1bf
00000130: 9eb1 ffb5 bb4a 0540 bc5c d213 fb77 f83f
00000140: 3cdd f616 dbb2 f2bf fddf 0589 b0cd df3f
00000150: fe8b 3056 7750 fabf 7ce1 dad0 8ec0 f53f
00000160: c459 f406 b834 0540 d247 647f 9d74 cb3f
00000170: bb32 4c54 fd89 f13f ac97 418d 0dc1 f73f
00000180: 36ac d19c c0e9 fb3f 2810 9cd5 aa9d 0cc0
00000190: aa9a d522 ad95 1540 6829 672c 70a9 07c0
000001a0: c2c4 d308 4530 e13f 8f65 a372 04d9 03c0
000001b0: 4d8b f625 d361 0040 758b 43b8 3c8b 0040
000001c0: 9f84 f7fd c3f9 953f 9bd7 f1a6 bd52 ff3f
000001d0: a9c2 5769 ab60 0040 b941 7e9f c363 0540
000001e0: 69b0 b6c5 4585 f93f 4649 b5f6 749f 0440
000001f0: 7d42 dada 97c2 1040 a8f2 03d1 b527 fd3f
00000200: b755 693c c084 e1bf 1c60 9b27 dc77 0240
00000210: 00d0 ecaa 62e1 0840 bae9 616f 4eb0 05c0
00000220: 8384 aa7d c46f e3bf 7e26 54bb fe6e 0bc0
00000230: f4d0 0942 7cce 07c0 41f8 07a9 88d9 e03f
00000240: 27fe b88f 3d5d db3f a613 bd6d 3106 f6bf
00000250: 86ea 84c7 230a b6bf 251f a3a0 ade4 f23f
00000260: 412b 27a3 8673 febf 25bc 4040 0c55 0bc0
00000270: 7820 dde1 bb7a 1940 f704 4499 3aa0 e93f
00000280: d2ae 219d 9b35 0340 3e07 ab2d f8b2 f8bf
00000290: 02e4 e554 75de cabf 6cbc fabc 91e9 f73f
000002a0: 4a9c c61a 496e fa3f 075e e072 ddb0 f13f
000002b0: 8352 f3b4 fa3b ffbf fd30 6e52 d758 b9bf
000002c0: 2f4c 5fb1 f345 1340 a7cd 3b83 b615 0ac0
000002d0: db07 d87a 47a1 f73f 1b11 ad64 c33a 1ac0
000002e0: bc60 068e 6dbd d5bf ca70 d434 4143 fa3f
000002f0: 9cd0 8714 76a7 f6bf 0f72 1505 f2ae 04c0
00000300: f50b 1dd6 6fb4 ee3f c6b5 3b84 a6ec 9f3f
00000310: c877 4537 e3f0 ba3f 816f 6705 e224 0240
00000320: a4f7 356d 3d3b 15c0 5c54 a43a ff94 dbbf
00000330: 232b 207a 9fc4 01c0 1a78 134c 8639 12c0
00000340: aff9 2646 b51e 10c0 1db2 2b43 15bb 0040
00000350: c75a 035c 1406 f4bf 7264 fe77 906c 14c0
00000360: aa18 81e4 3e2e 0840 f0ca 6626 a445 ed3f
00000370: 0331 02ab b132 f6bf 5a96 ae4c f21e ff3f
00000380: d56c 12f1 e6ab 03c0 1ec9 0380 78a3 0240
00000390: b6bf 6702 1274 eabf a2c5 fd7a 3867 f93f
000003a0: 6431 5388 7ce3 d2bf f4ed fe83 102b 0140
000003b0: 3f47 5724 32ec ffbf 28db 45b6 0f91 18c0
000003c0: beaf 7602 88af fe3f 7def e395 0543 12c0
000003d0: cbcf b1d0 2ca6 cdbf 0e8e e7c5 c5b2 0b40
000003e0: ff32 2551 48a5 f1bf 4848 fc3a 4664 f9bf
000003f0: 74d5 5257 feae 00c0 a87a 898e 3683 e33f
00000400: ef4a c84e 0f61 0040 775a e575 6407 0a40
00000410: 17d7 28fb 9472 0cc0 7735 927a dd25 0c40
00000420: 09d2 a67e c96e f0bf 40c1 6c12 fbf4 0a40
00000430: 4004 6324 53fe db3f 924e f800 ff8a b6bf
00000440: 4db3 be4d f346 1ac0 6ea8 72e3 5a57 be3f
00000450: 7126 e20c babd 1140 21c0 91c7 10cb 0640
00000460: 28b2 c616 c81d 1040 08ed 855e bc19 0640
00000470: 19f0 8047 8efa f23f 259c 0341 65ea 97bf
00000480: 776e ca6d 2bf5 05c0 bc99 17b1 6ed8 e53f
00000490: 8727 63e8 6efa 0ac0 f740 32cf 7673 c9bf
000004a0: b729 fc5c 4fc4 f13f 2e50 7ef2 27b6 f9bf
000004b0: a16c 3a86 ea57 c3bf 5f37 bd8e b745 08c0
000004c0: 2a75 5186 df1c 1540 2f08 118d e2ed 04c0
000004d0: d9d9 9432 0b85 f4bf 286c 7819 1d9d 1540
000004e0: 9dfa 924e c2a8 0740 d151 3f4c 24c8 0340
000004f0: b873 9cea c29a 05c0 d2c0 b18a ed3e 1340
00000500: 130d 3b70 4d1f f93f f68c 9783 bbea d1bf
00000510: 6567 1242 63d7 00c0 5eea 3e1b 0837 fa3f
00000520: 4c03 7764 6de6 1140 9f9d 593a 0990 0640
00000530: 030b e4fe ea03 f0bf 73fa 6c92 c101 ff3f
00000540: 1dd5 6f61 1748 0340 b8a2 1609 03e5 ebbf
00000550: b670 0fbf 35fa 03c0 dc8b c46a 8225 fcbf
00000560: 71d7 16e9 4af4 fabf 3ae7 8da9 acba ddbf
00000570: 8402 fac4 d622 e1bf 4408 9f29 7e3f dc3f
00000580: 4e6f 48e6 99c9 ea3f 0bd2 02a8 3a99 c93f
00000590: a616 d918 24fe f0bf 240e 1a9f 30fc f2bf
000005a0: d442 b5f6 450c f23f 9b61 68fd 5614 fa3f
000005b0: 4da3 9594 61ac f23f 97e1 bcb5 1690 0140
000005c0: f7aa 5531 152e 05c0 a2b6 0e7f 5e20 10c0
000005d0: f67e e493 5822 febf 223e ce76 334a 00c0
000005e0: e1bc 240b 92c7 0540 c5a6 750f dce5 f83f
000005f0: 19eb fa89 b325 fd3f 48a9 153e 977e f3bf
00000600: c4ad ed9d e03a 0f40 c896 205b e400 e3bf
00000610: 8a69 f1cd d2a9 1540 e1e6 922a 61f0 fbbf
00000620: b4c1 049a d4b5 02c0 19fa de45 444d fd3f
00000630: a072 a4a0 a834 c53f 74da fb8e c9e9 1d40
00000640: 9dc2 508f 61f4 e4bf 4520 ad17 8be8 e53f
00000650: 87e7 779e 8f54 12c0 3835 357f 78d0 fb3f
00000660: ccf1 d55c b9d7 0b40 e2aa aeb5 17ef f1bf
00000670: c207 119b 3e38 e63f 0c78 8c9c 6361 debf
00000680: be02 9f18 37cf 06c0 2eea 70d5 092d f1bf
00000690: c43b 5f90 e6a0 f4bf 30a7 c065 6526 ebbf
000006a0: 77e0 ca19 59e1 1040 b3f2 a1c5 4baa f93f
000006b0: a0cb f157 e66e e63f 4877 3bf0 de64 1240
000006c0: b452 4207 cf63 f9bf b3f1 ea50 e51f 1640
000006d0: 4fd3 9e87 8874 1040 bc33 3f48 af09 0b40
000006e0: efbb 3ae5 8a98 1240 5b31 c518 a530 f5bf
000006f0: bdf8 61aa 01e3 0bc0 8cab 05c6 dc8f 0240
00000700: 7a0f 3776 0a94 e13f ff9a 9987 862c 0240
00000710: ede7 fa25 00b6 0a40 0682 49bc b5e9 1140
00000720: d5eb 4d04 712c e0bf 4993 f96b 92da e0bf
00000730: 340a b2ef b848 17c0 074a d38b cbc3 04c0
00000740: 98c5 f68a 2789 09c0 07c4 d75b bf4d 0c40
00000750: 15c8 ff78 f5e0 ef3f 2912 5575 9e39 efbf
00000760: 5b54 0870 d6ad 0b40 97ef f1b8 2914 1bc0
00000770: 0b57 4858 6c7b 1240 d653 d88c 8196 1140
00000780: a6ef d461 73d2 1140 742b bbac 8a57 f43f
00000790: 3eaa 59b1 f89d 18c0 fe4b c557 b733 00c0
000007a0: 4232 697f 2431 f13f 54d7 ece5 169e 0340
000007b0: 7e57 a8ce df8b fe3f 3676 9983 18da 0d40
000007c0: 7d96 1149 9838 17c0 0756 5ffe ed90 fd3f
000007d0: 676a 9efd 9aed cb3f e2b7 aa23 6135 f73f
000007e0: 0ff7 0d40 3887 1540 9bc1 6942 1f43 fa3f
000007f0: ee96 dece 5f94 1a40 241e 3d79 6bbf 11c0
