best_weights.npy (npy, 11928 bytes, 1 tensors)

array f8 [1475]
000000 1c 27 e5 f1 03 04 ba bf 33 4e d7 78 1e 17 b2 bf
       -0.10162377029078268 -0.07066526842327718
000010 d2 7e 8b 23 bf cd e2 3f 89 c7 a2 d6 71 aa ec bf
       0.5876155561672596 -0.8958062355143152
000020 68 f9 d9 28 d6 ce d4 3f 82 55 cd a2 b3 b5 03 40
       0.3251243018093164 2.4637215346253365
000030 9c c6 da 43 15 aa f3 3f b8 de b6 43 e8 8d f9 3f
       1.2290241861887017 1.597145332821965
000040 8b 34 d1 7b ec 98 f1 bf 4e db 6d 47 2a 4f fb 3f
       -1.0998349033937156 1.706827429790525
000050 d0 ac b9 ed 53 ee ec bf 67 b2 02 98 60 e3 e7 3f
       -0.904092754656995 0.7465060204463726
000060 d0 5b 6d 82 a6 50 f1 3f 9c da a1 6f 7c 21 d3 bf
       1.08219004581564 -0.2989188280256856
000070 2c e0 05 e1 42 ba 94 3f 62 b2 fb aa 02 54 e7 3f
       0.020241780266104722 0.7290051784053271
000080 c4 57 2e 9b 3e 01 f3 3f 41 e2 36 13 63 0c e0 3f
       1.1878038465269904 0.5015120864182522
000090 e5 9e 3e fb 61 61 fc 3f 1d 05 b5 40 2c c2 05 40
       1.7737750829928072 2.7198109679453766
0000a0 70 5c 65 0a 47 96 f8 bf 7b aa 18 09 00 a3 f8 3f
       -1.5366888433543657 1.5397949557615493
0000b0 d2 2e 0c 9a f8 ec c1 3f e4 d5 09 86 ec 38 e3 bf
       0.1400442840753074 -0.6006987207353487
0000c0 fa df a5 de 47 db c7 3f ae 7b bf 26 a8 7b cb 3f
       0.1863794171474636 0.21471120731345422
0000d0 2d a9 58 8a 36 30 ec bf 86 d3 c0 8f 47 9e f3 bf
       -0.8808853818966661 -1.226142465148969
0000e0 21 e3 7b a5 ab d1 f3 bf 52 06 74 54 ad 9b fe 3f
       -1.238689085408801 1.9130070971445048
0000f0 d9 bb da e7 f1 a8 f9 3f cd 5c 07 41 8c 1f eb 3f
       1.6037463242353083 0.8476010580151524
000100 23 90 10 2a eb e3 db bf 12 19 1a 23 2b 64 f2 3f
       -0.43578604801064297 1.1494552012605408
000110 d1 92 ed e6 f5 72 02 c0 97 eb 15 c5 a3 78 d9 bf
       -2.3061330834628753 -0.39798826452868624
000120 d2 49 21 05 94 20 ec 3f 88 b3 af 5d 8d 7b d9 3f
       0.8789768314548445 0.39816602849060034
000130 ba 57 2c 29 a3 05 f6 3f b8 ad 8d ca 4c 1d d1 bf
       1.3763763054207474 -0.2674133279858455
000140 07 95 b7 00 1e 13 db bf 94 ac 44 fa 12 38 f8 3f
       -0.423041821193991 1.51368997345961
000150 3c 09 74 31 d8 d9 e8 bf 9c f5 0f f1 be 8a e2 bf
       -0.7765923467525577 -0.5794367511986596
000160 37 a7 2e ee 26 4f e0 bf c4 f9 6f 53 87 87 fc bf
       -0.5096621181485038 -1.7830880412362697
000170 d5 f8 23 75 17 da e7 bf c2 9b 21 9a 63 15 df 3f
       -0.7453725135708519 0.4856804852665243
000180 62 67 1b 85 07 91 fb bf ea 5f 7a 3f c9 d8 ee 3f
       -1.7229075622076029 0.9639631500058361
000190 b0 46 42 6b 2a 01 05 40 96 bb 98 66 c9 0f e7 3f
       2.625569189033591 0.7206770900573811
0001a0 9c 8c 5c 00 f1 70 ae bf 46 92 f9 74 0a 8c f2 bf
       -0.05945542458928196 -1.1591896600085803
0001b0 78 c8 7c b2 f3 5e f7 3f d4 60 fb 48 2a 72 ca bf
       1.4606816265263927 -0.20660904468127816
0001c0 19 34 e8 75 fd 18 ce bf ac a3 4f b7 91 6e eb 3f
       -0.23513763673000268 0.8572472172064542
0001d0 05 e5 05 0a ae 24 ec 3f ee af 75 1f 5b ad f3 3f
       0.8794775195848678 1.2298232296843667
0001e0 00 32 ae 44 91 5a fe bf f7 19 7b 05 cc b1 df bf
       -1.8971111948804946 -0.49522686515083997
0001f0 76 e0 15 a1 72 e6 f4 bf e1 8a ea 20 67 13 fd 3f
       -1.3062616627121577 1.817237022951922
000200 a5 98 70 7d 2d 6f fd bf 6d e9 0f 40 22 a6 f0 bf
       -1.839642992019017 -1.0405600073268844
000210 5b 4f 06 4d d9 38 cd bf 04 df b6 21 03 50 f4 3f
       -0.22829738865822943 1.2695342366186546
000220 e0 35 5b b7 64 6c f1 3f a0 4c f3 68 df d5 f0 bf
       1.088963237987052 -1.0522150134682207
000230 25 95 7b 2f 96 ee dd bf d0 f6 84 89 12 e4 c1 3f
       -0.4676871741961171 0.13977271761716858
000240 7c b7 03 3a 33 a1 e7 3f ed 5a 4b be 91 ca f3 bf
       0.7384277470680298 -1.2369553979275978
000250 02 03 c9 64 64 15 f0 bf 19 c0 7a fc f0 a8 ed bf
       -1.0052226960107764 -0.9268727236976729
000260 3e c1 bf a3 f2 22 e2 bf 49 0f 5f 8a 5b fd f0 bf
       -0.5667660902236447 -1.061854877961155
000270 f8 74 eb f8 60 83 d0 bf 91 d2 8a e9 e5 f0 da 3f
       -0.2580187254769295 0.42095325285780755
000280 32 05 7b 57 b5 4b 09 c0 b6 6b ef 71 34 e1 e5 bf
       -3.161966975633413 -0.6837408280656436
000290 d3 1b 9a 72 e4 b3 f6 bf 72 e7 28 24 a8 0e ef 3f
       -1.4189190365448112 0.9705391603704199
0002a0 6c a0 88 c4 c9 7f 02 c0 29 7c 4c 52 eb 1f f1 3f
       -2.312396560115351 1.0702927794261632
0002b0 d4 2f b6 99 b7 53 d3 bf b1 40 6f e7 a3 ec ed bf
       -0.3019846917238713 -0.9351367492872865
0002c0 8a 75 69 12 96 40 eb bf e6 f0 16 b1 ad 8e f4 3f
       -0.8516340598686594 1.2848336141169567
0002d0 1b 87 5d 73 19 c9 e3 bf 0f 5d 3b d6 5a 18 e3 bf
       -0.6182982686261512 -0.5967230018822266
0002e0 6f 0f 17 d9 07 6c ed bf 08 c1 70 8d 19 38 f0 3f
       -0.9194373359718905 1.0136962437646293
0002f0 c7 ad 8f 46 ca 11 d8 3f de 79 0d 2c e1 25 f9 3f
       0.37608582392450923 1.5717479439550668
000300 c1 b1 d5 06 b3 e3 c0 bf ef 8a 1a cf b6 0a ec bf
       -0.13194883187988007 -0.8763078732484625
000310 ae 5b 65 53 ba 29 e0 bf 53 61 6a df 99 27 ec bf
       -0.5050937298609506 -0.879834114416591
000320 38 4a 37 37 c8 e4 e0 3f e0 01 ff 6a 8c ec e9 3f
       0.5279275015294109 0.8101255502479567
000330 dc 83 f9 5b 2f d9 cd bf 96 00 a2 76 24 55 e4 bf
       -0.2331904601187763 -0.6353933636710447
000340 6a 1d ca f9 37 f2 bf 3f aa 17 85 91 3c 34 02 40
       0.12478971336724035 2.275506150125655
000350 41 49 2e a8 a3 91 e3 bf d7 30 f6 db 6c 55 f1 bf
       -0.6115282330304482 -1.0833557693722946
000360 f2 18 b3 74 78 d6 f6 3f 03 98 63 b3 f5 e9 02 c0
       1.4273609694078542 -2.364238168217527
000370 a6 95 27 03 ff 1c ff 3f b4 f3 16 f3 a8 5c fd 3f
       1.9445791362025857 1.8351220603646938
000380 86 01 28 5e 59 0d d4 3f 86 6d b2 95 ab 68 c7 3f
       0.31331476397465285 0.18288178262160332
000390 17 af e5 82 e9 bd d8 bf ce a6 7a 45 39 ab e4 3f
       -0.3865913179677007 0.6459013325704406
0003a0 0c 7a 12 72 c3 6b f4 bf 0a 8d 4d bc 04 81 f2 3f
       -1.2763094383186653 1.1564986568053564
0003b0 f6 2d b8 10 51 b9 a2 bf 70 62 bf 80 d8 aa b5 3f
       -0.03657010392279496 0.08463814872028208
0003c0 82 14 9b 62 6e 37 fb 3f 7d c0 ee c3 92 57 fa bf
       1.7010330058849665 -1.646380200731101
0003d0 ea 2a 35 4a b2 07 f0 3f 9d b6 e5 ce 77 f2 ff 3f
       1.0018790148484933 1.9966962892462228
0003e0 f6 4f 1a 38 28 db f7 bf 16 2c 7d 6b 21 88 09 c0
       -1.491005152846808 -3.1914699933599975
0003f0 9b 57 1f a6 82 36 a4 bf 02 10 ed b5 1a 28 e1 bf
       -0.03947838094579411 -0.5361455491297422
000400 75 c6 f5 a7 1b 46 fa bf 4c f2 62 a3 fd c8 e3 3f
       -1.642116218656523 0.618285006632115
000410 d0 f6 51 89 05 dc d1 3f 01 a8 4d 9e 02 c2 fb bf
       0.27905405435727193 -1.7348657783245474
000420 5b 24 e0 d7 7b da ef 3f 20 40 1d 25 3e 4b 0a 40
       0.9954203811950139 3.2867396258880177
000430 61 7c ae 7c 1b 1a ef bf ef 45 3b c6 e2 fb df bf
       -0.9719369349658217 -0.4997488914351313
000440 7a 8e f6 a3 98 62 b5 3f 30 84 e3 09 c2 cf a6 bf
       0.08353570940976765 -0.04455381746971232
000450 9c f3 15 12 74 a8 c5 3f d9 19 7d 4a 22 21 e1 3f
       0.1692032898244208 0.5352946715218493
000460 fc 00 ac ee ba 09 eb 3f 28 a1 2f 7f b4 71 e1 3f
       0.844937769084964 0.5451300129034609
000470 3b b4 4c 39 08 cd f1 bf a7 40 41 c9 8d 76 eb 3f
       -1.1125566709772687 0.8582219057807564
000480 77 aa 12 1d a9 0b c5 bf e0 35 be 72 18 5f ef bf
       -0.16441835326743945 -0.980358337504807
000490 38 18 a8 2c a6 27 c7 3f ef 07 34 31 56 6b e9 bf
       0.18089749508379938 -0.7943526230812931
0004a0 64 d0 e7 6d 71 2f f0 3f 2e d6 d5 c2 de f5 fa 3f
       1.0115827840027345 1.6850268946412927
0004b0 65 2c c3 04 dc de f6 3f d2 4c 9d b8 b5 62 07 c0
       1.4294090448409176 -2.9231981680874037
0004c0 3c 84 d5 97 dc 33 d4 bf 58 5d ca 2e 91 2c fc 3f
       -0.31566538646262976 1.7608806445840255
0004d0 b3 c3 12 07 ff 6a 03 40 cc 75 51 ce 43 2f db bf
       2.4272442391015487 -0.42475981853735045
0004e0 b1 94 84 19 07 44 e0 3f 1e a1 b1 7c d6 71 c2 bf
       0.5083041666408886 -0.14409905518119442
0004f0 0c e6 3e f9 38 c4 e4 3f 88 4d 68 3c 3e 42 e8 3f
       0.6489529483871492 0.7580863170464207
000500 e0 40 a2 0b 2c 47 02 40 ec 87 b5 a1 38 e1 01 40
       2.2847519787684263 2.2349712976001594
000510 ae dd c8 52 cd 6f d7 bf 84 28 4b 77 ab c3 f9 bf
       -0.36619885525166296 -1.6102709445863477
000520 f3 58 00 16 6f 47 a6 3f 69 8b 1e a2 11 da 00 40
       0.04351374763079887 2.1064789453097785
000530 21 8d 26 98 a4 a5 e3 bf a1 14 3f eb b5 16 fc 3f
       -0.6139700862590055 1.755544585162433
000540 90 ee 99 37 4c 7a e5 bf 46 a2 4b c6 6a c5 f9 3f
       -0.6711789213145085 1.610697531310636
000550 fc 49 98 23 f7 93 dc 3f 4e b6 e8 4e 3f bd dc 3f
       0.44653109050810236 0.449050738391496
000560 0b 40 ad 4c 57 91 f8 bf 32 28 44 d1 06 73 fa 3f
       -1.5354836459337118 1.653082673498386
000570 d6 86 ef 6f c0 a2 b9 3f e1 01 8e c9 3f 0b cf bf
       0.10013964398197159 -0.2425307974008453
000580 f3 3e fd da 5c ce 03 c0 0d 8f ed 2b 37 d6 e3 3f
       -2.4757630451712145 0.6198993547409103
000590 d6 bc e4 b3 4b 0b f3 bf 27 7d e2 41 79 e2 e7 bf
       -1.1902577426042646 -0.7463957106410007
0005a0 8d 5f 63 3b 06 f8 f1 bf 93 54 ad 26 c4 92 f1 3f
       -1.123052818284097 1.0983315954993358
0005b0 01 c1 04 1e 3d eb f1 bf 70 d9 99 fc 23 7c e5 bf
       -1.1199313328361884 -0.6714038785565162
0005c0 e4 ac 7d 44 16 f8 f8 bf 7b 2e 4f eb d1 cb d2 bf
       -1.5605681109835183 -0.2936901853506481
0005d0 fd c6 06 91 d1 07 f8 3f 4c 00 7e e0 0c b3 ef bf
       1.5019088425728448 -0.990606726132691
0005e0 bf 2f db bd d4 30 f2 bf 78 44 01 7b 25 44 04 40
       -1.136921636224528 2.5332746133577153
0005f0 87 00 a4 e1 1e 99 f9 bf 5c 4e 3d f3 6b 61 b2 3f
       -1.5998829664313534 0.07179903686965744
000600 30 fd 3e 59 25 48 f2 bf f8 d3 b3 84 20 d4 fc 3f
       -1.1426137434171544 1.8017888244332863
000610 ce e9 f0 d7 c2 d7 08 c0 66 22 51 15 29 9d da bf
       -3.105352103271094 -0.41584231454593235
000620 27 89 e8 43 cd db fa bf 8c b3 1b 5f 40 b0 ff bf
       -1.6786625530881538 -1.9805301394619361
000630 7b f5 2b b6 64 d0 00 c0 61 b2 35 0d 41 59 07 c0
       -2.1017545921483225 -2.918581107331463
000640 f8 88 a1 89 c7 23 c2 3f 54 9b e5 83 ad 92 cd 3f
       0.14171690197242248 0.23103875103262317
000650 4a 23 77 d7 75 f2 eb 3f 98 50 a1 2b ec 4e f5 bf
       0.8733472069080588 -1.3317681984235943
000660 57 c3 7a 62 bb 8d f2 bf b1 f6 46 de 41 36 eb 3f
       -1.1596025320870547 0.8503732053138348
000670 78 1b 55 40 3b b6 02 c0 33 25 f2 81 42 29 98 3f
       -2.3389802003834426 0.023594893628375146
000680 33 8b f2 ef 19 76 d0 bf 49 00 01 97 dc b0 e0 bf
       -0.2572083323704419 -0.5215895604415063
000690 22 fc eb 86 81 d3 cc 3f 5b 32 f2 9e 94 c4 fd bf
       0.22520464981059357 -1.8604932984191211
0006a0 a6 45 ba 4c 64 6e b1 bf 2d b6 1b 99 9e 57 db bf
       -0.06809069512589491 -0.42722287132241626
0006b0 a9 33 2b a1 cc e7 ed bf 0f ee 6a 7e 4c 20 ca 3f
       -0.9345458171679769 0.20411068127383244
0006c0 88 72 e0 be 43 92 e8 bf fc 1f fc ad 8e 4a 86 bf
       -0.7678545692502476 -0.010884394344898844
0006d0 36 de 71 01 51 93 f7 3f aa 7f 2a 1e 22 14 fc bf
       1.4734659248769169 -1.754915349803904
0006e0 b6 27 c3 1d f6 87 e6 bf d9 dc 57 4e a9 43 e6 3f
       -0.7040968495650677 0.6957594423428431
0006f0 ba fe 2e 5b cd 69 d6 3f 6a bd 60 ab 64 e9 f5 bf
       0.350207652136287 -1.3694807714890325
000700 4a 37 fc 55 9d 3f 02 40 a2 92 70 e2 8c e2 b4 bf
       2.281061813125153 -0.08158188370050337
000710 c2 46 6a 97 57 9b 00 40 ac fe ab a0 c9 b1 a7 3f
       2.075850661211775 0.046278286803496854
000720 94 4c 4f de d7 17 d8 3f fa 47 1f 10 c8 ec 00 40
       0.37645527563035697 2.1156159648462536
000730 3f cb 0b 2a e9 c4 fc bf 31 d4 f0 53 5e eb f9 3f
       -1.7980739252495395 1.6199630049643583
000740 ef 64 ef 03 47 34 ea bf ca 2b 8c b7 b1 cf e8 3f
       -0.8188815190179904 0.7753532967484429
000750 03 b3 37 23 8e 97 de bf 58 27 a3 27 5d b0 c1 bf
       -0.4780001968309053 -0.13819469867149325
000760 38 0b 2d c4 f0 05 fb 3f 16 db 9f c8 10 96 da 3f
       1.68895031577331 0.4154092749808326
000770 4a e9 09 81 50 d3 03 c0 e1 49 58 4e d9 01 d8 bf
       -2.4781808930539784 -0.3751128449522679
000780 4e fd ff 5c 53 ea eb bf 70 8b 61 fa 06 5e 82 3f
       -0.8723542038350531 0.008968405262015117
000790 28 cd 13 2a bd bd e4 3f 95 53 4f 23 39 a7 e9 3f
       0.6481614896605707 0.801662987675274
0007a0 0f af 0b 39 c9 92 ef 3f 6e cd 81 1e 01 9e ec bf
       0.9866682161495833 -0.8942876430359499
0007b0 e3 91 67 aa fa 0d 0a c0 62 d6 56 ad 30 98 ed bf
       -3.2568257630211845 -0.92482789855303
0007c0 3c ab 33 31 a5 d4 da 3f 30 bd 2c c7 b3 e3 fe 3f
       0.4192288380133282 1.9305913715614444
0007d0 85 7d a0 1f 98 37 f8 3f 30 13 87 18 dc c5 f1 bf
       1.5135728106905344 -1.1108056028471758
0007e0 e5 2f ce e4 50 4c f6 3f fc 79 9d 62 38 e7 be bf
       1.3936318338119176 -0.12071564109417204
0007f0 88 c0 51 7e 82 29 f1 3f cc 36 64 89 a8 db ea 3f
       1.0726342138623597 0.8393137629916168
