best_weights.npy (npy, 11928 bytes, 1 tensors)

array f8 [1475]
000000 2d a0 d1 6d 0b f2 f9 bf d5 5a c5 bc 54 af 09 40
       -1.6215929307745782 3.2106108424880895
000010 24 b9 78 52 5b 63 01 40 8d 95 a2 d6 ca 67 0e 40
       2.1735140269367026 3.8006798523298984
000020 18 b6 b1 8c 6c 85 ea 3f 14 34 44 3e b0 84 a2 3f
       0.8287871120389267 0.03616858253563052
000030 94 bf 21 a0 f3 e5 d0 bf 29 5d 7b a6 fd fe 17 c0
       -0.2640351356303594 -5.999014474181686
000040 4d 39 05 0e 32 ff 11 c0 26 2b 00 5d 10 71 21 40
       -4.499214381283605 8.720827966948104
000050 b6 47 bc 2d 5b 71 04 40 b0 e5 d6 4c cc ab 13 40
       2.5553496907313855 4.917771530739103
000060 7b 4e a2 de cd f0 24 40 72 9b b4 9b 22 fd 18 40
       10.470320660889447 6.247202332399739
000070 f7 a0 54 20 07 d4 07 40 f2 ae 37 dd a2 53 f6 3f
       2.97852921732203 1.3954189912137136
000080 e4 ca d6 16 d3 0e 03 40 d0 ac 39 9a 76 d4 be 3f
       2.3822385582255823 0.12042943253770777
000090 68 e8 c4 95 00 68 1e c0 d8 c6 c0 32 25 18 0a c0
       -7.6015647317345625 -3.2617897000389853
0000a0 07 4f b6 e7 5a 8e fb 3f 32 be 5d 7a 4f c5 fe bf
       1.7222546626334763 -1.923171499245552
0000b0 c6 f3 e1 d0 ce e0 13 c0 ff f9 3a cc d9 72 fe 3f
       -4.969538940230398 1.9030397393941028
0000c0 a0 0e ba c9 d7 b8 04 c0 08 e9 f9 80 07 ce 1b 40
       -2.59025533293773 6.951200499776185
0000d0 80 8d 31 11 f2 0e 13 40 46 44 82 72 72 3c 03 40
       4.76459528794237 2.4045151659015884
0000e0 56 1b 05 2d 98 57 0f c0 5c f8 39 e8 5c e6 f7 bf
       -3.9177707211669413 -1.4937409468980354
0000f0 6e 29 7b 4b 16 cb ff 3f b7 ee 32 fd 59 af 04 c0
       1.987081808898974 -2.5856208592575416
000100 a8 83 cc a7 ae 2a 08 c0 d9 fc 7c 6d 9c 9a f3 3f
       -3.020840941361218 1.2252468373188121
000110 70 cb 94 04 c4 b7 12 c0 fc 1f 0e 76 57 1b f5 bf
       -4.679458686429697 -1.3191752063303275
000120 7a cc 48 77 c0 09 19 c0 f8 9b 75 f0 59 08 e6 bf
       -6.259523261850626 -0.6885194488976358
000130 bd 3f 32 65 0e 31 f9 bf 06 85 9e 98 e7 2d 13 40
       -1.5744766190509687 4.794828781771917
000140 22 79 18 1d 49 7c 05 40 75 04 5c c6 41 2a 26 c0
       2.6856863282292958 -11.0825330722166
000150 a4 5d b1 07 d3 1f 1c 40 bc 66 a7 19 04 f8 19 c0
       7.031078453255223 -6.492203141062131
000160 bd a6 44 a1 15 f2 fa bf 3e 11 40 2b 86 9f 02 40
       -1.6841026591813908 2.327892625706368
000170 a2 d1 1b 1a ea 26 cd bf 6c cb b4 2b d3 33 06 40
       -0.2277500751003006 2.775305119948305
000180 27 f2 7d d0 bb 8c 22 c0 6e 13 7d eb 9d 10 10 40
       -9.274870410322434 4.016227416523959
000190 4d 9d 9f 0c 88 57 f4 3f 72 11 9a 6a aa 07 fb 3f
       1.2713699811082109 1.6893715061315473
0001a0 e0 93 59 d7 7e 27 0c c0 bc 01 cc c5 74 0d 01 40
       -3.519284899159615 2.1315703823931624
0001b0 72 d2 da 56 a6 97 17 40 6a b1 4e ed d5 e2 e0 bf
       5.898095471483076 -0.5276898989591647
0001c0 79 f7 36 ca 5f ce 07 c0 4b 33 59 1c 24 e4 14 c0
       -2.975768642237139 -5.22279400152622
0001d0 f0 2c 90 3c 34 d2 d2 3f ce d1 84 40 7f ef f2 3f
       0.2940798369824753 1.1834709663645415
0001e0 53 fd 28 43 e8 b7 0e c0 9c 1b da 9f c2 c8 12 40
       -3.8397984740146653 4.696054933249709
0001f0 63 7d 2b 53 cf 1e f2 3f 13 18 b1 ba c5 fe 02 40
       1.1325219391654506 2.37440057614277
000200 a8 5f f4 e6 0c 52 18 40 b0 0f b1 09 50 d6 15 40
       6.080127342858681 5.459289695198024
000210 8a db 98 24 56 d0 0f 40 26 c9 f9 77 a0 c3 04 40
       3.9767268046520643 2.5955209134200627
000220 ca 6e f1 1e 09 fb 15 40 84 8a 48 97 b1 62 d0 3f
       5.495151980863463 0.25602378629461264
000230 55 1c a0 84 3d 89 14 40 47 93 5c 11 56 af 23 c0
       5.134023735306148 -9.842453520346352
000240 c0 41 67 ab 72 8c f7 bf 2f 7c ca 6d a6 2c 05 c0
       -1.471789044899296 -2.6468018128794237
000250 ea c7 46 ad 89 cd 09 40 7e 16 05 1c ec d9 06 40
       3.2253602540231343 2.8564073742916767
000260 23 e3 9c da 6a 99 19 c0 27 ec 60 81 94 65 1d 40
       -6.3998216779953365 7.349199315586737
000270 a4 a1 13 f8 21 47 0d 40 f0 af 8d 94 10 5a 07 c0
       3.65973275957022 -2.918976936887695
000280 06 f8 51 1f c7 ae 06 c0 07 05 9b d7 88 83 1a c0
       -2.8353407332315355 -6.628451699101112
000290 fb e8 dc fd fa 17 04 c0 e7 80 3a 32 0b e2 fe bf
       -2.5117091973344237 -1.9301864587833337
0002a0 e6 25 37 0d 90 f0 f4 3f 8c 94 17 c1 56 d1 f4 3f
       1.308731128332846 1.3011081259403765
0002b0 66 31 bd ec 75 9f 24 40 f2 f4 e5 d5 0d dc 01 c0
       10.3114465695332 -2.232448264198518
0002c0 e2 0f 07 11 df 02 00 40 29 b5 fa 9f 6f 07 13 c0
       2.00140202811052 -4.7572617527742205
0002d0 7d 28 57 b8 74 71 07 40 d5 fb 46 b7 7f 57 07 40
       2.9303984071348723 2.9177240675485145
0002e0 02 5f 71 22 ff 46 14 c0 6f 86 ed 84 80 a2 0c 40
       -5.069332636041283 3.57934669351453
0002f0 ce 39 0b 73 f4 74 15 40 63 d2 bd 77 6c 85 12 40
       5.364213750419777 4.630296584091954
000300 1c b7 e6 b8 c4 72 e8 bf c3 5a 3b 08 07 c4 17 c0
       -0.7640098201133898 -5.941433075545038
000310 2c 86 fa 29 ba fd 12 40 3c 6c 44 08 6a ac fc bf
       4.747780471721438 -1.792093307775544
000320 f4 83 ff 20 99 90 0e 40 a3 69 44 ff a2 46 1d c0
       3.8206045701958775 -7.318981159735276
000330 af c2 db 6c f8 09 1f c0 a2 85 ee 0b 18 05 e4 bf
       -7.759736729539028 -0.6256218178788695
000340 5b 75 59 f6 00 b8 15 40 3a 66 6b af f2 33 ed bf
       5.429691170892819 -0.9125913072741192
000350 23 e0 92 05 a7 06 ce 3f ae 2b 37 d2 2a 7e 01 40
       0.23457801601557646 2.18660511237018
000360 d0 ad 44 71 29 3a cd bf f2 5a af d7 4f d4 19 40
       -0.22833745985677334 6.45733582504066
000370 1b 94 75 59 e5 24 00 40 f7 92 b8 d7 08 36 f7 bf
       2.018015574360573 -1.4506920267678518
000380 3c 47 b9 e2 bf db fd 3f 7e ac 72 ca 1b 6a 18 40
       1.8661497932811946 6.103621638535627
000390 c1 da 25 ce 12 44 ee 3f d5 ab 95 6c c8 c4 21 c0
       0.9458097482991762 -8.884341614981091
0003a0 39 d4 f6 38 08 a1 1c c0 61 8a e3 de 38 ff e7 bf
       -7.15725792891049 -0.7499050477311578
0003b0 c2 73 cf 58 1d c1 0b 40 75 ba 4b b4 e3 83 02 c0
       3.469294256049097 -2.314399155198141
0003c0 7a 3c bb 52 af 4b 07 40 70 65 3d 48 d8 f1 1f c0
       2.911955496157643 -7.9861766135667125
0003d0 ba 29 d2 93 67 bb 01 c0 b4 15 dd d3 35 a6 13 40
       -2.2165061520110756 4.912314710968918
0003e0 fb d0 8b d8 37 5b 12 40 63 6b c6 b4 d3 ac 1a c0
       4.589080222638809 -6.6687763448815955
0003f0 eb 0a 6b 1a 58 83 02 c0 42 6a f6 f0 17 b9 04 c0
       -2.314132887260134 -2.5903776955795204
000400 27 eb f9 c3 83 8c 17 c0 7f ac 5b 15 cf cd 14 c0
       -5.887221395615405 -5.200985273094488
000410 20 70 66 23 96 8c fa bf a2 c3 85 72 dc 52 13 c0
       -1.6593228705232903 -4.830919064916914
000420 41 1b e8 ac 48 02 12 40 2a fa ab 66 c8 f2 16 c0
       4.5022303597132245 -5.7370925943819575
000430 7c 85 5c 93 3b b9 ee bf 21 e3 37 d0 1c 7f 01 c0
       -0.9601114156868529 -2.187066675859015
000440 ff 88 26 e2 87 fc 08 40 5b 5d e2 1f 7c 34 f8 3f
       3.123306052018165 1.5128136868932731
000450 dd 10 8b 58 52 38 12 c0 38 7a db 92 fb ba 26 40
       -4.555001624572665 11.365200604716946
000460 fb 09 9a 21 52 e2 11 c0 4d 05 30 4b 93 4a ec 3f
       -4.47101643088035 0.8841034382350387
000470 bb 37 25 41 e1 5e fd bf 68 b8 9a 51 3a 9c 17 40
       -1.8356640381566496 5.902566218441372
000480 93 6c 30 d8 17 b0 fb 3f 31 91 02 3e 3c 48 26 c0
       1.7304914898766455 -11.141084611714719
000490 b8 fb 38 d3 be 4a 0b 40 dc 62 8d 7a 77 6e dd bf
       3.411496782471172 -0.4598673531341271
0004a0 a2 f9 73 10 98 da ef 3f db e7 73 34 27 ca 17 40
       0.9954338380191994 5.94741517980034
0004b0 03 e3 fa a1 dd 97 d3 3f b1 cc 26 8c 46 f6 0f 40
       0.3061441499553867 3.9952517461147967
0004c0 62 0a 0c 46 4b d0 15 40 49 9d 04 64 b7 44 14 40
       5.453412146077058 5.067105829984322
0004d0 88 1c 4e 7d b8 1b a0 bf 6b 30 d5 d9 39 ff 0d c0
       -0.03146149186709929 -3.74962206060268
0004e0 95 fd 6b 56 b7 69 00 c0 54 93 03 56 12 c7 14 c0
       -2.051619219942675 -5.194405883758765
0004f0 bf 44 86 15 c7 c8 08 40 d6 8f 81 8e 98 4f bc 3f
       3.098035972747851 0.11058953742173058
000500 69 77 01 8c f4 89 fa bf 2e 44 72 43 f8 86 fe bf
       -1.6586804837201845 -1.9079516062377126
000510 60 78 a1 b0 0d d3 27 c0 43 07 2a e6 0c f6 fb bf
       -11.912213821135254 -1.7475708952701587
000520 05 1a 11 ad ed 43 00 40 00 5e 54 22 ec 3c 29 c0
       2.033168174824143 -12.61898906020997
000530 c1 01 94 d4 2a 68 f2 bf 12 23 fa a3 d8 15 15 c0
       -1.1504314712366155 -5.271334230558539
000540 5b e0 d5 8b d8 e6 16 c0 91 e1 ff 63 3e 22 24 40
       -5.725435433320025 10.066882252679337
000550 49 bc 76 45 23 aa 25 c0 83 b3 0a 66 0d 10 20 40
       -10.832300348991469 8.031352223211575
000560 a2 37 5d ec 30 9a 0b c0 cf db 7c 43 9d bf e4 3f
       -3.450288626284377 0.648390418827029
000570 b2 34 d1 5c 26 bf 0a c0 dd fa 4d 9a 97 b9 ff 3f
       -3.343334889540153 1.9828105952762407
000580 df 2b 63 55 18 a2 ee 3f ef cf d3 5f d5 5b 00 40
       0.9572869937632013 2.0448405729784933
000590 9e fa fb a7 a9 f0 2f c0 74 00 76 43 14 a9 01 c0
       -15.970044373997833 -2.2075581808458598
0005a0 b3 3f 31 b7 3a 61 15 40 70 e6 95 89 03 b9 08 c0
       5.344950544720564 -3.0903387783881087
0005b0 d9 47 bc 64 23 b5 14 c0 14 44 a9 00 ad e1 15 40
       -5.176892827979793 5.470386514979527
0005c0 55 1f 54 8f 18 55 0c 40 80 ac ae c1 cc 77 df 3f
       3.5415507504984967 0.4916870013646033
0005d0 78 65 30 7e bf 5a 18 c0 8e a9 45 e5 03 9b fe bf
       -6.088621112541084 -1.9128455120031478
0005e0 d8 85 dd 73 67 05 e9 3f 43 af 8e 96 59 dd 19 c0
       0.7819096816057778 -6.4661620640361575
0005f0 76 c5 f1 d5 97 3f 1c 40 f3 74 85 57 fe 42 ff bf
       7.062102644807387 -1.9538558405686757
000600 ca 5c 83 eb ea e1 e7 bf b6 18 4d 6c e3 a8 ef bf
       -0.7463278388849173 -0.9893662562615393
000610 40 b6 f4 3b a3 a7 f4 bf db a2 98 de bd 44 10 40
       -1.2909271566417289 4.067130544725582
000620 b6 a2 6e 5f 98 90 e8 bf a9 e4 fe 40 fe a7 03 c0
       -0.7676507820043159 -2.457027919558261
000630 70 93 e6 a9 49 b5 23 c0 c7 f1 eb 8d e2 1c 11 c0
       -9.854077634235836 -4.278207986379534
000640 5c 21 21 b5 fe 27 fe bf ac 79 2a e0 6a 63 01 c0
       -1.8847643924110207 -2.173543692871325
000650 1a 43 7f 66 1b 23 f3 bf 10 3f aa 11 e8 ba 15 c0
       -1.196071052913061 -5.432525897995006
000660 57 82 5e 66 23 63 03 c0 0c 52 83 86 12 6c 12 40
       -2.4234073636619473 4.60553941895024
000670 47 97 fe cf 0a 24 1c c0 38 82 b8 85 d6 8d 22 40
       -7.035197496332166 9.277027300618201
000680 ad 91 bf 2e a9 6b 22 c0 a2 b0 8b 17 a1 95 00 40
       -9.210275135884183 2.07306116480875
000690 27 1e 14 ba 3d 3f 20 40 16 9c 00 61 19 9e 0d 40
       8.123517813640388 3.702196843939883
0006a0 e6 f0 89 f8 a7 73 e8 3f d3 18 56 8b cd 28 00 c0
       0.7641181806825699 -2.019923294606181
0006b0 86 e9 6c 1e 3b 73 0b 40 0e fc fd b9 5e bd f5 bf
       3.431265104006516 -1.3587329163854096
0006c0 8f e7 9f a5 dc 2a 13 40 26 c9 b7 46 66 4f 09 c0
       4.791857326397703 -3.1637692952000576
0006d0 27 e8 92 1a 45 c4 f8 3f 32 bd 8d 02 53 5a 13 40
       1.5479174650231557 4.8382072829256675
0006e0 3a ba 54 07 0a 8b 18 40 79 02 81 ed 1b 32 ec bf
       6.135780443712571 -0.8811168326138407
0006f0 40 f1 1d e0 72 a4 cc bf a5 6a 81 72 11 17 e6 3f
       -0.22376857703410202 0.690315936702366
000700 33 b1 0c 16 7c c3 d2 bf 48 17 72 37 19 eb dd bf
       -0.29318143990782913 -0.4674742738210296
000710 c0 ef 99 cf 04 41 87 3f de ec f3 a8 00 5e d2 3f
       0.011354482255448661 0.28698746203708747
000720 ce 53 a3 49 0b 71 16 40 7e 45 68 6a 06 09 1b c0
       5.610394621461593 -6.758813536276078
000730 df a9 13 b2 96 a1 09 40 25 67 cb 8f 31 4a 22 40
       3.203900710320553 9.144909375743348
000740 4b 9d f9 5b c9 c4 15 40 17 07 5f eb 0b e0 f6 bf
       5.442174374685531 -1.4296988672435356
000750 09 c5 e7 9a 51 ae 15 40 a1 fb 1d 7f ab 46 14 40
       5.42023317374811 5.0690135824251294
000760 ff 30 2b c4 24 9f f4 3f 50 73 9f 2d 64 95 ac 3f
       1.2888534224358066 0.05582726532859417
000770 f1 b2 b8 83 a4 0a 0b c0 6a ca fc 7a 99 e8 f4 bf
       -3.3801965990772875 -1.3067869953344151
000780 1b 21 86 6e 2a 94 10 40 56 27 95 de ee 05 11 40
       4.1446931142202414 4.255794027188889
000790 4c 2e 5c 9c e1 45 f6 3f 58 d7 45 d6 c3 e8 0a c0
       1.3920608623328858 -3.3636547794402922
0007a0 9d 1a 5f f8 64 ca 15 c0 34 62 c5 96 03 6e 08 40
       -5.4476507957503175 3.053717782877607
0007b0 79 1a 18 5d 98 70 22 c0 ff 2f 66 7d 1c ee 05 40
       -9.219912442390738 2.7412652775583406
0007c0 00 69 05 be f4 47 0a c0 a2 b4 56 ae 02 2e 01 40
       -3.285134777584176 2.1474660511217545
0007d0 d1 40 52 a2 82 08 0e 40 72 dd 94 37 07 60 f8 3f
       3.754155414710205 1.5234443827774524
0007e0 22 60 87 62 54 95 11 40 99 38 4e d9 2b a8 f2 3f
       4.395829715264002 1.1660574425218668
0007f0 17 66 bd 51 29 78 0e 40 22 d2 3d 78 26 b4 21 40
       3.808672560303204 8.851856000467766
