best_weights.npy (npy, 11928 bytes, 1 tensors)

array f8 [1475]
-1.2086773016239083 0.28012727291492096 6.840529699457436 -3.8510718684387064 0.5901720002693929 2.818595931319315 3.5890470430545003 -4.662612285525516
1.2888409249814277 -6.301290455295863 -5.351053965633593 0.8044681795560602 2.596077274852947 2.8772506150372608 -1.4319189557116005 5.136703609697853
-12.812494205074348 1.8560454908272235 -2.311718859010078 8.113501240526018 0.07181778798681637 -2.1996621494957176 -6.693479406533229 5.490926272721798
-3.2411843389499047 2.874029187576258 -10.601726762651188 -7.6325598520384625 4.306724690403144 6.029519317643207 7.016518541530637 5.18167851800956
8.778372656489694 2.9665733594455332 10.291595646250116 15.791351711220596 -2.7740492733156787 -3.133233989149151 0.7225163653911069 -2.2482284186177015
-7.984051351470831 -7.80826617982103 4.6277491514084135 -9.158433676947697 1.905185866906364 -0.5044545700936975 0.9613063328225243 -8.05338218691465
5.945547230292867 2.1948957534712394 3.2307824528111944 -2.748769799244421 1.0402498241054552 -5.626264998524641 -2.317442145618376 -2.2944405598133972
9.792592276124543 0.11124196881394133 6.353503196258542 -0.6286362629097602 0.9266547185764166 1.2913578292316754 2.9541576741272566 7.5674078336136095
-0.5633196599064864 4.12584798937016 -2.5545706646836055 -0.32475562208631836 -6.857372425120838 -1.2083121729342334 -5.543398294457695 -11.624733408293077
-3.3362799739130695 -8.596582429712672 2.732110173207933 -9.20871588900651 4.132605212073509 -4.23033845452647 5.3447272921651345 -4.235015712894857
1.3195680603174782 2.396404632070177 2.653952731064545 -0.5649192674810857 3.0026609400450557 9.833617475246927 -9.460492027708286 4.0338465777913175
4.756157360425812 5.121705151259111 1.6554470732767919 3.4837820908453176 -12.93177356658618 7.568729608987053 -0.6398339030272377 1.4307018931940856
11.283753642985479 -6.47938830815039 -0.12578356614535258 -5.189368444206381 -2.1644087175166824 7.33300842844038 -3.4234723845899535 6.127623902055357
5.335033376283336 2.3557371182497233 4.677167069945876 2.6878164725709577 5.122153395892551 0.691437014068641 -4.01974656322281 -2.3053280806682857
7.95929548881277 3.9563428021907487 -2.2309783598455946 -1.6272598903000535 -2.865617630397511 -3.406737556895684 -6.897270735768165 -5.6677477532359735
6.830517292040461 -7.0396135949963226 6.191714473463482 -4.3318443393722195 -5.867387517767269 -1.3138282561201473 1.2595331273396169 6.058076253178604
1.2342334309176577 7.09045330251828 -0.056164068842434633 6.23806993657411 1.2850631782456245 8.349597675870848 -5.063905734056023 -2.400308556389826
-2.1816511938429857 1.7521022153442845 -3.164997614953385 0.00715401950948491 -5.874093381077094 -4.466907900471819 4.792255235155256 9.277895257506954
4.727278129278626 -0.7378799857590596 0.3506481647413344 -4.451464044446105 -3.757686006922407 -0.47402066039048574 -2.326918088233788 -3.442324478302869
-2.52181373417356 -2.736925583378085 5.100535035213762 3.9888028245438263 -11.273020308170569 -1.7344536733520803 -4.737452281199512 9.905643064223637
-3.2746690501031352 0.09066540326791483 4.338120155817056 5.343003221526745 0.07238532210021575 1.6283984580719588 -2.7303044957451172 -7.619226498949905
-4.362540339701008 -2.8910535625863876 3.7984774850016585 -1.1425337378948348 -6.593846795692054 -3.469766498471138 8.775351691625549 -8.396514866532007
-4.829354304441367 -6.932731081239888 7.076385091723351 -7.056915230046786 0.535672955923117 0.04147768751529979 9.940059620433708 6.227777090487827
3.2842778638272785 7.078847561257428 -7.036275701788982 -0.03599564634221586 -0.2333173110130764 4.516253901668439 -1.4643297859974802 -1.5360850595505333
0.09039437543950213 2.9333841408226036 10.717077713114437 -12.11643816689643 -8.466815030546176 -7.842930646418273 4.864766146355986 2.9869665627021798
1.1522778693407374 2.982902896327868 5.278640737430264 -13.49541501040634 -11.318458866145484 -7.21395452727816 9.066224727415262 -1.1438875227221734
-0.058223607710647274 -0.5984770853272878 -5.379825322734259 -5.608471950377213 2.4927711348496078 1.6363943724644376 -3.452626526691213 -1.5105400655846486
-6.220630723217669 1.7044188291639237 -2.9530974759581485 1.7379539011161267 -0.8756362723482158 2.1757355582630593 -4.230729371232266 -10.736796493664734
1.742712688329973 -12.970192045835606 7.250575752851826 2.0912394874310225 -0.07149996636124922 4.50357537954341 1.9091164358792763 0.01542717934406701
-2.8753649290215355 -7.028070905131588 -0.7608961926600208 -2.6772569421658035 -3.779467924461903 5.815537810843542 10.290780953485886 -0.4194419582146477
7.55942381376585 -13.565291519875041 4.570723059413059 -8.207744482265996 0.609237908028013 -3.4347118271156516 1.5628828053183885 1.7156314632431382
-8.020033538022542 -9.044294282333938 -0.6735178264070946 -4.340078406645268 -1.7027337770021838 -3.512639928349892 2.308308824105267 6.209863005415617
00000000: 8246 9e02 be56 f3bf bdc8 f8f0 9aed d13f
00000010: 12f2 49d1 b35c 1b40 3beb 8bc4 fece 0ec0
00000020: 9480 0564 b0e2 e23f b03d 0d06 7c8c 0640
00000030: f2cb cd4b 5eb6 0c40 250a c1d5 83a6 12c0
00000040: 7baa 68a9 179f f43f e85e 307c 8534 19c0
00000050: 0c1c d6b0 7a67 15c0 bcb5 3b0d 34be e93f
00000060: c40e 8b29 c4c4 0440 edd8 6ff8 9b04 0740
00000070: 5adc d4d9 23e9 f6bf f796 f307 fc8b 1440
00000080: baf7 8d3d ff9f 29c0 eddb afc1 5cb2 fd3f
00000090: 30f5 0775 667e 02c0 b73a a8d5 1c3a 2040
000000a0: f8a7 ac8a a662 b23f 55aa 1278 e898 01c0
000000b0: f109 2e77 1fc6 1ac0 6559 7860 b5f6 1540
000000c0: 1bc7 000e f2ed 09c0 a61d c303 03fe 0640
000000d0: fb6d bd87 1534 25c0 3912 15c5 bd87 1ec0
000000e0: 01a1 8809 163a 1140 e182 df4f 3a1e 1840
000000f0: 589b 8e3c ea10 1c40 7ef2 f4ee 09ba 1440
00000100: a072 5fdc 868e 2140 0007 40d0 8abb 0740
00000110: b899 4806 4c95 2440 f6a6 2e0d 2c95 2f40
00000120: 3711 d3be 4031 06c0 c9e3 50fb dc10 09c0
00000130: 34bf 05a4 da1e e73f e434 5f2e 5ffc 01c0
00000140: 779b 5028 abef 1fc0 3d2d 2321 aa3b 1fc0
00000150: 4590 6dac d082 1240 9926 0a38 1e51 22c0
00000160: bca0 f22c a47b fe3f 70d8 1be9 7d24 e0bf
00000170: 4522 9d7f 05c3 ee3f 8af9 f5e8 541b 20c0
00000180: 98b9 7b88 3dc8 1740 574e 3a81 258f 0140
00000190: 9884 7a78 a4d8 0940 f0e5 3f05 7bfd 05c0
000001a0: 303e e3ff dca4 f03f d92b 9d9c 4b81 16c0
000001b0: 886c 8e1b 1f8a 02c0 a41d f8a6 035b 02c0
000001c0: c308 a2a7 ce95 2340 a89f ff89 5a7a bc3f
000001d0: fed8 ebbd fc69 1940 d2dd c8cb c91d e4bf
000001e0: 8b08 dfcb 27a7 ed3f d2bc bfd3 66a9 f43f
000001f0: fad4 2c6b 1da2 0740 6a75 238f 0645 1e40
00000200: 1dc0 8ff3 b606 e2bf e372 9a4b de80 1040
00000210: b718 a1be c26f 04c0 4462 03ce cbc8 d4bf
00000220: 7a8b 7909 f36d 1bc0 98c7 2125 3f55 f3bf
00000230: 8897 3d9a 702c 16c0 bdac aa0e dd3f 27c0
00000240: 0a0d 128e b3b0 0ac0 e2f7 9140 7331 21c0
00000250: caf9 1794 5cdb 0540 87e0 1acf dc6a 22c0
00000260: 1a8a 24a9 c987 1040 3bcf 04d8 ddeb 10c0
00000270: 338d f730 0061 1540 d8b7 83f5 a7f0 10c0
00000280: 3b8e fe65 f31c f53f 6acb 1531 d62b 0340
00000290: b66a c891 4b3b 0540 eec4 5692 d113 e2bf
000002a0: d4c2 5319 7305 0840 891e e3e8 cfaa 2340
000002b0: d126 6e9c c5eb 22c0 eac7 62ad a822 1040
000002c0: 5aa2 761d 4e06 1340 85a6 7146 a07c 1440
000002d0: 4ab9 ff11 b67c fa3f b291 1425 c9de 0b40
000002e0: a487 c76c 11dd 29c0 0d77 fb0d 6146 1e40
000002f0: fcf7 0bf3 8479 e4bf 8b80 19ab 27e4 f63f
00000300: ab7c 5128 4891 2640 df5c c6c4 e4ea 19c0
00000310: 30f9 7b07 ad19 c0bf 110b 2bcd e9c1 14c0
00000320: a84a 8784 b550 01c0 70c6 5529 0055 1d40
00000330: 7995 547d 4563 0bc0 0b10 16d7 af82 1840
00000340: 52d2 48fd 1257 1540 c6d8 c6b3 8cd8 0240
00000350: fa61 cd48 6bb5 1240 1fbd 3aec a580 0540
00000360: bdd0 a1c7 157d 1440 0866 5584 4020 e63f
00000370: 6000 6d71 3814 10c0 782a 48d9 4f71 02c0
00000380: cf9a 7e8e 51d6 1f40 e464 190e 97a6 0f40
00000390: e2f6 ac2e 0bd9 01c0 83e6 aeaa 4109 fabf
000003a0: c52f abef c8ec 06c0 0e60 c79e ff40 0bc0
000003b0: e620 c723 ce96 1bc0 0281 2811 c6ab 16c0
000003c0: 174e 0020 7352 1b40 ddf1 5b77 9028 1cc0
000003d0: 35c8 86cc 50c4 1840 9add a300 cf53 11c0
000003e0: 7f13 f76e 3478 17c0 448c 09c7 7005 f5bf
000003f0: a66f 6235 0c27 f43f 274e 6057 783b 1840
00000400: 4cbd d68d 6bbf f33f 5b86 60ca 9f5c 1c40
00000410: f0ef c66d 89c1 acbf 84fc fe9a c8f3 1840
00000420: 8cbd 3d68 9e8f f43f ed3e 7177 feb2 2040
00000430: a230 3781 7041 14c0 b506 f0f8 d433 03c0
00000440: 0aae 868a 0574 01c0 1472 2255 9c08 fc3f
00000450: 6f24 0145 ea51 09c0 803d 407d 884d 7d3f
00000460: 3681 d555 127f 17c0 fa14 cb1a 1dde 11c0
00000470: 744e d4f4 442b 1340 6769 8549 488e 2240
00000480: 1b64 1199 bbe8 1240 cfa8 e67c b69c e7bf
00000490: 58da fdff 0471 d63f 18dd 2897 4cce 11c0
000004a0: d4f2 62ae bd0f 0ec0 7059 80c0 5a56 debf
000004b0: cd7a 0b3b 879d 02c0 a93f 846a e189 0bc0
000004c0: 5a08 d7ad ac2c 04c0 888e 813d 39e5 05c0
000004d0: 9b61 01a8 f266 1440 83dd 8c74 11e9 0f40
000004e0: 0e79 5d51 c98b 26c0 8996 b77e 52c0 fbbf
000004f0: 3373 d8b0 26f3 12c0 2761 9d72 b0cf 2340
00000500: b054 dbaf 8532 0ac0 9012 ea0d d935 b73f
00000510: 2569 8d2b 3c5a 1140 2285 8b3c 3c5f 1540
00000520: 907f 212f d887 b23f 0c6a a48a eb0d fa3f
00000530: c2c6 2ae2 a9d7 05c0 c639 e782 167a 1ec0
00000540: 7afc 59c6 3d73 11c0 b457 b2b0 e020 07c0
00000550: 4865 e529 4863 0e40 f65b ed74 d147 f2bf
00000560: ba53 d95f 1960 1ac0 1085 1df0 14c2 0bc0
00000570: 2adc 9ce5 fa8c 2140 fb43 20ff 03cb 20c0
00000580: 707d 3941 4251 13c0 5a8d 47db 1dbb 1bc0
00000590: 3e6a bbe4 374e 1c40 f3c7 6efc 473a 1cc0
000005a0: 7453 619c 3b24 e13f c0a9 c83e 903c a53f
000005b0: 1c1b 9c7e 4fe1 2340 68b1 c965 3ee9 1840
000005c0: 52eb 0079 3346 0a40 4ae1 436a bd50 1c40
000005d0: e24a 2375 2525 1cc0 7028 ad77 056e a2bf
000005e0: 4827 3276 57dd cdbf b564 e0dc a410 1240
000005f0: 8aaf d611 e56d f7bf d04c 6aed cd93 f8bf
00000600: 2848 41f6 1524 b73f 5081 bb1a 9277 0740
00000610: b108 5dcf 246f 2540 18a7 8dc8 9d3b 28c0
00000620: 42f4 3261 02ef 20c0 86a6 1c36 295f 1fc0
00000630: cc25 b541 8575 1340 4269 a8b9 4ee5 0740
00000640: 8691 4beb ba6f f23f 98f9 9631 fcdc 0740
00000650: 9e62 5aff 531d 1540 1449 4709 a7fd 2ac0
00000660: a46e 5e0a 0da3 26c0 9ef6 45e5 16db 1cc0
00000670: c1de 1c35 e821 2240 9c4e c600 5d4d f2bf
00000680: a0d9 f115 7ccf adbf f45a 9c6a b926 e3bf
00000690: 5c58 eded f084 15c0 269d 5d45 136f 16c0
000006a0: 27bc 24fe 31f1 0340 c27d 91dd ab2e fa3f
000006b0: d286 0ba8 fa9e 0bc0 7cbd 4f0f 2c2b f8bf
000006c0: d2d9 3205 ede1 18c0 7021 9fad 4c45 fb3f
000006d0: 871f c991 f19f 07c0 78fd f3bf a8ce fb3f
000006e0: 76a9 1d5c 3605 ecbf 86df 5b0b e867 0140
000006f0: 49ad fe51 44ec 10c0 ec31 d863 3d79 25c0
00000700: 3e39 2bb3 26e2 fb3f 1268 0703 bdf0 29c0
00000710: 3bad 1eee 9600 1d40 daf5 b4c4 dbba 0040
00000720: 50c9 2f61 d24d b2bf c4d6 a843 a903 1240
00000730: 9eb8 05ad bd8b fe3f 00b3 04f6 4898 8f3f
00000740: eeb3 f153 bf00 07c0 8309 8e9e be1c 1cc0
00000750: c605 e4f8 4259 e8bf 8dba 0cb0 056b 05c0
00000760: 4cc2 dead 593c 0ec0 d5e5 0858 1c43 1740
00000770: 0c0b bb3d e194 2440 fa88 4615 23d8 dabf
00000780: 64e9 a298 d93c 1e40 8d23 dde3 6d21 2bc0
00000790: 3402 2da0 6b48 1240 8983 1a7c 5d6a 20c0
000007a0: 38d7 4e7f e07e e33f 462b c531 4a7a 0bc0
000007b0: e22b 8566 9101 f93f f0e2 29fa 3973 fb3f
000007c0: 8e42 fdd5 410a 20c0 510c 7cbd ad16 22c0
000007d0: 9320 b641 758d e5bf 0778 8a83 3d5c 11c0
000007e0: 904d e0c5 653e fbbf b217 77f6 e219 0cc0
000007f0: 7ecd e49d 6a77 0240 f499 e353 e6d6 1840
