best_weights.npy (npy, 11928 bytes, 1 tensors)

array f8 [1475]
-2.5073746600076556 -0.15814257332870835 -0.6868775606391783 -0.5996596855551647 -1.927850126960196 -1.1415883517960763 0.6786106101862449 1.0562916570224747
0.2946855096860708 -0.6164843645333192 0.10708372361401128 0.340847071785607 0.8612141578193286 0.1051881568702159 1.4554790899720185 1.9798552926053024
-0.3783813067355325 -0.782128900005342 2.9619198648850737 -0.2254779020474054 -2.348794121295348 0.18530046436552366 -0.3894515632791156 0.5454367848301896
1.5064330029089623 -2.6726140044750006 -2.4240558090870783 1.766498127668532 -0.9652217780395812 -0.045492323620392655 -0.5798514997616881 -0.09165247076787048
1.9670103280984084 -1.8160058756535025 2.2772685533010706 -1.1647109231573844 -2.2273025768281367 -1.2340280303669073 -1.5871359176663329 1.7324287375544865
2.6888325886390203 -1.592103514552198 1.7855302767263064 0.07888620036585037 0.8612703946702867 -1.6914190154442945 0.04311073060795463 -1.4497021504847443
-0.8526358629083177 -0.5315169280368369 0.8493997648673183 -1.4712352027016964 -1.3866267305010291 -0.5688830701050351 1.7447655761209648 -0.25610545433914894
-2.403701308849614 0.2606211681436262 1.1813380588323936 -0.39192015187116924 -0.10132768890902205 -0.8271445276841077 -2.046027745366952 -0.9971942621331413
-1.531616505329272 -0.3143779075323916 0.09524610045348214 1.2039989259353625 0.9845572503041404 -0.4556150598026036 0.6450303898719347 0.8833861620937576
-0.013221375851978402 2.5301513765087744 0.010755690395283596 -1.1081969969274943 -1.0794320320285784 -0.6433961634586913 -0.4234569026993407 2.6340682337095447
-2.6368945503973733 -0.5387730699852645 -0.8606564965475011 1.0457848121995323 -0.32459623665944604 -0.8823020265682792 0.2828394417985649 -1.730057490053202
-0.7521946327964489 -0.0013270981278441975 -1.824599078406353 -1.1504334059837413 1.271946645851512 1.9802149412492778 -1.201466198403947 1.0283988282972025
-0.16866369565226005 -1.5301281336082888 -0.642564187081765 1.0480306641634625 -0.26664950167779544 2.881546773672478 -0.3485811624400703 -0.4573005379764587
1.4093800774741294 -1.9755931584742699 0.9269181609283984 -0.42852731265104493 1.3799897901593643 -0.3136394185806301 -0.27676717750807056 1.4301463031552084
2.02702231782618 -2.9060098215397376 -0.8179916343345217 1.1221340866035943 -1.6334143327071502 3.192773579854351 -1.2374565862445532 1.0951081330688308
1.9491818538939851 0.6076859341104737 1.598642788453929 -0.49630277999425704 -2.434030627122654 0.5522521636835007 0.7423389845553766 1.358791531384392
1.7613509467233754 -1.429514383382483 -0.307305976746654 -0.12355042398222947 -0.6845286012899262 -2.162524139918142 -1.48985858263731 -1.2677965997880951
1.804119391905838 -1.361763157502456 3.6210202488319108 -1.1878836363772498 -1.0095901448133273 -1.053784525164054 -0.3841912666736726 1.3132661664585517
1.8161913647716874 0.4097579734112438 -2.042581375910716 0.7403212956674954 -1.3985892133484985 -1.782693190970273 -1.853994394289161 0.5252173857859235
1.6517134411733378 2.7731745666699714 0.16627119238653112 -1.289686408316226 0.2486209395321587 0.0030948108936482525 0.1836252699680576 1.3463974265526475
0.12454601072332372 1.186058205215094 -0.18852922613183057 1.547446509793868 0.671743141426641 -0.9358570713227752 -0.12814420840366653 -0.36159457849589477
-0.5304254214825345 -1.6323245695104933 0.41470305194710855 0.02791370292093628 -0.9291130728430325 -1.6709430144957447 -2.0225126154082367 1.189588797880645
0.5035675607461273 0.16051606646399652 1.1947445425711407 -0.01567216576349381 -0.7543655316972446 -2.3927091557057056 -1.8679045142837658 0.6052750592377272
1.7517327503116418 -0.916706004146296 -1.8927152556585876 0.3209372801732907 0.3762250382679234 -0.4779995860010685 1.874727449542697 0.49363844016988156
-3.165445786231695 -0.03446687377434752 -1.2173285439319033 1.6660036139329562 1.476603521005826 -1.6761974813311538 -0.3086367168973697 -1.7550985187978703
-0.8078206730036515 -0.2754142853890675 0.34827597582604825 -0.47521880615046275 0.5904516792484746 -3.390202860300493 0.3923405253067036 -0.44165619319933264
0.02468759725896663 -0.6656350783106275 -1.1704759333126513 -0.2404746118016193 -1.1736537817363357 1.1144779890974774 0.21557034929293611 1.2633425704856216
-1.0447766077433216 2.5940551299252013 -1.003638783095066 -0.13846742462095707 0.08124263576550289 0.6495359108048251 1.0921778421308368 0.27468287764646593
-2.8327925740157935 -0.3505407521190784 -3.1669495019270837 -0.6236684683672157 -2.0727007228774257 1.0310566884554093 0.3297455663869132 -2.615650888023704
-0.20555816612609998 -0.594705620241552 -0.7942118767580291 -2.482414453052811 -3.292751151724909 -0.39237215174485984 0.27007471342512274 0.41787905350120774
-1.1071072392749552 -0.03053956267104982 0.4991419843769339 -0.2439149915213898 2.294104654597929 -0.012734227728435802 0.690734817796289 1.3494451689048963
0.36037551258313416 2.337499588813159 1.2069669259706537 -1.8106825654449323 1.440335688152195 -0.38729305770873357 0.6021251357286572 0.37943566715748583
00000000: 7f6a 1c72 1a0f 04c0 b2aa 460e 043e c4bf
00000010: 1da6 69a6 e6fa e5bf e90c 4682 6930 e3bf
00000020: c622 ee5f 79d8 febf cc56 c725 f243 f2bf
00000030: 2bfe 2e99 2db7 e53f d52f 9f14 92e6 f03f
00000040: a53b ad9c 20dc d23f 734f 056b 3dba e3bf
00000050: 2628 dbc2 d669 bb3f 426b 903c 70d0 d53f
00000060: 58f5 55fe 108f eb3f da20 af6d 9ced ba3f
00000070: 0b11 3771 a449 f73f 28d6 48be 7cad ff3f
00000080: e632 763a 6637 d8bf d4f0 d82f 3307 e9bf
00000090: dc6e c80a 03b2 0740 81d4 a1bb 75dc ccbf
000000a0: 2e01 8092 54ca 02c0 c217 31f5 ecb7 c73f
000000b0: 693b ea3f c6ec d8bf 9731 1cd8 3774 e13f
000000c0: bcbe 117e 591a f83f ef69 8073 8361 05c0
000000d0: 9ea9 3d5f 7764 03c0 5881 6c8a 9343 fc3f
000000e0: a324 42c8 18e3 eebf 4c57 5614 c54a a7bf
000000f0: 846a 80bb 248e e2bf 6cac 8b4c 8976 b7bf
00000100: f53a 61d2 df78 ff3f 0169 542d 5c0e fdbf
00000110: 4119 4593 d837 0240 3714 c4eb a7a2 f2bf
00000120: df2f 6e03 84d1 01c0 df5e 0c2d 94be f3bf
00000130: 0bf1 caa1 e864 f9bf 4427 2732 07b8 fb3f
00000140: 29fd 04a9 ba82 0540 d892 ed88 4179 f9bf
00000150: c4ea 0832 8891 fc3f e051 add2 e231 b43f
00000160: 8ee6 43ee 868f eb3f f8a6 b262 0d10 fbbf
00000170: caba 2214 9c12 a63f 955d d4e1 fa31 f7bf
00000180: 9ad0 5201 cb48 ebbf 0309 e6c9 2f02 e1bf
00000190: 23ba 6a6a 482e eb3f 543e 85ec 2d8a f7bf
000001a0: 642e b482 9f2f f6bf a82c ab44 4a34 e2bf
000001b0: ae04 0a4f 8fea fb3f fbaf ad21 0864 d0bf
000001c0: 54e4 76c0 c73a 03c0 c99e 7468 04ae d03f
000001d0: b948 83bc c2e6 f23f 8885 bb42 3815 d9bf
000001e0: 9423 0b86 9cf0 b9bf d9fe eecc f777 eabf
000001f0: 377a 68cb 435e 00c0 b8dc f3f0 03e9 efbf
00000200: d372 064f 8081 f8bf 2cf0 db83 c41e d4bf
00000210: b0ec 8466 0c62 b83f f0fb b460 9443 f33f
00000220: 2e12 e334 7e81 ef3f 7fb4 5a11 cc28 ddbf
00000230: 86a2 adc5 16a4 e43f 07d0 7d0e b344 ec3f
00000240: 9a93 2307 cf13 8bbf cc46 4001 c03d 0440
00000250: d0fb f253 1407 863f 9643 35c6 2cbb f1bf
00000260: c314 bd85 5a45 f1bf 92a9 0d8d b396 e4bf
00000270: ddfb 16fb ea19 dbbf 47b8 b95d 9212 0540
00000280: a3a8 872b 5c18 05c0 dfab 7105 a13d e1bf
00000290: d55d 387e 7f8a ebbf d2ce f0da 88bb f03f
000002a0: 0ad9 364b 2fc6 d4bf dfc4 a975 d13b ecbf
000002b0: 80cc 229a 0a1a d23f 50a7 3fc3 50ae fbbf
000002c0: 9dcc 827a fa11 e8bf d8ec b0c3 40be 55bf
000002d0: 8a12 a1cd 8e31 fdbf 24d1 eedb 2c68 f2bf
000002e0: b606 e3b9 e459 f43f 9875 bbdc f5ae ff3f
000002f0: 764f d69e 3439 f3bf d07f 6c54 5274 f03f
00000300: 89aa 6ca0 c596 c5bf 0a98 48a3 677b f8bf
00000310: ad1a 23c5 e28f e4bf 7f98 3ccd bbc4 f03f
00000320: 60da 4c12 c910 d1bf 758a 1665 680d 0740
00000330: 0ca2 2b5d 274f d6bf 8b55 c379 6944 ddbf
00000340: 522a c61f d28c f63f c792 5d92 079c ffbf
00000350: a130 6846 50a9 ed3f 38db 51d2 fd6c dbbf
00000360: 22c6 982c 7014 f63f a393 6211 ab12 d4bf
00000370: 8a37 00ae 8db6 d1bf 31c0 0817 e1e1 f63f
00000380: c09a 1a7a 5737 0040 9af1 ca13 823f 07c0
00000390: 9ec9 bbca fc2c eabf 3f07 3bdf 42f4 f13f
000003a0: cdb7 3c11 7722 fabf ea0e e8df cc8a 0940
000003b0: 183e 0247 9fcc f3bf f2d3 111b 9085 f13f
000003c0: ace6 c64f d92f ff3f 5acc a7c5 2972 e33f
000003d0: 7d55 e675 0a94 f93f 554f 3fbc 6cc3 dfbf
000003e0: 24a2 a70c e578 03c0 d84e c5ba 0cac e13f
000003f0: 15c2 a6af 3dc1 e73f 250b 5630 9cbd f53f
00000400: e049 8f54 7e2e fc3f 43a1 5c79 4adf f6bf
00000410: 7580 ffaf e6aa d3bf b71d 6926 00a1 bfbf
00000420: 7df0 7686 a8e7 e5bf 5312 ce74 d94c 01c0
00000430: 7d79 01f4 75d6 f7bf 2f1e 6116 e548 f4bf
00000440: 2a0a a54b acdd fc3f 93ee 252a c8c9 f5bf
00000450: 3f18 d776 d9f7 0c40 fc19 9b45 9201 f3bf
00000460: f264 e5fe 4727 f0bf 9dc4 8929 4ddc f0bf
00000470: 5b6c 71f7 9696 d8bf d51f 3e62 2303 f53f
00000480: 548d 2fad 1e0f fd3f dde5 c481 7939 da3f
00000490: 44a4 87e7 3457 00c0 5e93 2d49 b6b0 e73f
000004a0: 35ec 3d15 9f60 f6bf aa4e a04b e985 fcbf
000004b0: 4607 a706 f6a9 fdbf 8eb7 e7b0 94ce e03f
000004c0: ec3f c312 6b6d fa3f 6e92 af25 762f 0640
000004d0: ed95 c8da 5f48 c53f b505 1d37 8ea2 f4bf
000004e0: e419 329a cfd2 cf3f d8b0 6af2 495a 693f
000004f0: 77b1 9d68 0881 c73f 1a65 2707 d88a f53f
00000500: a868 e752 3fe2 bf3f 11d2 282b 18fa f23f
00000510: 81c7 49c6 b921 c8bf effb 7d45 57c2 f83f
00000520: d6ab f778 eb7e e53f 1cf9 6187 8af2 edbf
00000530: befd 2188 0767 c0bf dd3f 4396 5d24 d7bf
00000540: 0981 c7bb 3ef9 e0bf db13 285e 001e fabf
00000550: 9682 6aab 7e8a da3f d76a 9fe4 6895 9c3f
00000560: 53b3 c456 4bbb edbf 71d2 0bbe 2ebc fabf
00000570: 0b68 1718 1b2e 00c0 7d5d 6943 8e08 f33f
00000580: 4165 97b7 391d e03f c403 f95b ca8b c43f
00000590: 33ae 1674 ac1d f33f d893 a53d 5d0c 90bf
000005a0: 72d1 fb2e c323 e8bf 27c4 a4b2 4424 03c0
000005b0: 8364 0ed8 efe2 fdbf 0656 10cd 695e e33f
000005c0: ecba 9eeb 1807 fc3f a65d 7bd4 a755 edbf
000005d0: 441a bbca 8f48 febf 9255 9a84 3c8a d43f
000005e0: 5a03 d32e 1214 d83f 7e12 5893 8b97 debf
000005f0: a330 cb35 e2fe fd3f 7eff 24af c597 df3f
00000600: 5402 893d d552 09c0 2df7 4f5f a4a5 a1bf
00000610: 14cc ca7e 2d7a f3bf f9c1 cd67 f3a7 fa3f
00000620: 380e 7e03 2ba0 f73f 2c47 3f73 b4d1 fabf
00000630: 1ed1 5a37 b4c0 d3bf 16eb 372f e214 fcbf
00000640: 28ab 72bd aad9 e9bf 6f39 263d 63a0 d1bf
00000650: 7bf1 8951 274a d63f d010 b723 fc69 debf
00000660: 04b2 87eb fae4 e23f c55e 5ead 221f 0bc0
00000670: bc9d 456f 1b1c d93f c97c 7756 1844 dcbf
00000680: c056 609b b447 993f f243 8def e14c e5bf
00000690: 9e53 e5f8 44ba f2bf 6b66 9a40 dfc7 cebf
000006a0: 0726 1630 49c7 f2bf 7391 34df e6d4 f13f
000006b0: 96a8 1928 cf97 cb3f ca15 feb2 a636 f43f
000006c0: 5a22 1ead 67b7 f0bf ee65 d8f9 9fc0 0440
000006d0: ad3f 668a e70e f0bf 3478 27f2 4cb9 c1bf
000006e0: 3c57 a73f 51cc b43f 5c7f cf88 ffc8 e43f
000006f0: 7de2 1579 8f79 f13f bed0 107e 6794 d13f
00000700: f6fe 2d27 8fa9 06c0 5c11 917a 426f d6bf
00000710: ece1 d69e e955 09c0 11e0 6593 17f5 e3bf
00000720: 9a3b d91d e494 00c0 07cf 534c 357f f03f
00000730: 9e7f e825 8d1a d53f 7685 6e5f daec 04c0
00000740: 93fa 77e0 ba4f cabf 63ea b514 d407 e3bf
00000750: 14a8 9806 2f6a e9bf 1fd6 d71b fcdb 03c0
00000760: d432 74ea 8d57 0ac0 9abd e615 a01c d9bf
00000770: 61cc 6873 e748 d13f db26 1ec9 87be da3f
00000780: cb9c 9d14 b6b6 f1bf 780d a05b c345 9fbf
00000790: 0668 bd38 f1f1 df3f 8653 cb3f 9b38 cfbf
000007a0: bdcb 888a 535a 0240 424d 111d 6714 8abf
000007b0: 3598 94e7 7f1a e63f 4f11 43d1 5397 f53f
000007c0: 1ab9 3474 6410 d73f 7fed 02fc 32b3 0240
000007d0: 9d5c 268d bc4f f33f b35f 2048 8ef8 fcbf
000007e0: 5c01 3e6f 9d0b f73f 22eb 34d2 68c9 d8bf
000007f0: 8cbb c1ee 9b44 e33f 6326 5889 ac48 d83f
