best_weights.npy (npy, 11928 bytes, 1 tensors)

array f8 [1475]
-0.3094902454742783 -1.4257110209874042 1.3882692946359452 5.488392919425753 -1.2806438978531902 0.7700255648091671 -11.32007655744201 -5.540711886873674
-2.3795091112318683 14.253236064764364 -4.149692210517426 -2.9567885723923015 9.965427907105472 10.036688249210757 3.3771614697668006 -0.8021417957630355
-12.875026082286022 -2.8042328004397206 -11.139628756306157 1.6961858727119032 5.535451657967448 -3.33207301069766 -5.92559636087645 3.6493406676666975
0.19954622875851402 9.593179491594547 12.39906793595219 6.038419385638668 0.9095400664066172 -2.195646038143309 3.4215840021237987 -12.532736459272849
2.553622341844627 3.2622509404091744 -10.026714276356056 -0.16311948378606378 -6.202066635734582 -5.435843184282483 -9.030937326777007 5.125789811863508
5.044090727163974 -11.649094835042721 7.997949788758571 -2.808410440029128 4.129295090363284 4.2286915951677315 -4.821492954008097 -1.7991590586342212
-3.538919449970511 -4.79137352934206 0.9404841980062966 -7.971439048815961 -0.8740872729272675 6.163790263005437 0.36471324830940927 4.977070445389212
5.025820039479034 -11.820394001202978 3.4308215276494414 8.05156582592328 -5.236407215401607 -1.3336437562902468 1.5957261526360607 10.68301939003786
10.273785844665516 3.5694922778299163 8.779447092830598 -3.2835335836778277 3.842871918991828 -1.2928236622337554 2.0458456720067026 -0.9435603515729125
-1.8112443497892325 -1.7641835958171497 -0.4933383716942751 0.5011691725029348 -9.915302545973253 2.9804223268197805 0.04433799413424766 -4.686841807528159
-8.312483519168033 -11.295158690962005 -6.171376300987541 2.671781673815623 5.529593656041678 -1.1031107183750426 6.599091032821376 -6.578676322487343
4.474102985474815 -3.047443148900536 3.7714240374509447 -2.2908944719593194 -7.151154466812468 1.0191599968890706 -1.3272906425636486 3.3439710054714498
7.888456124209788 -6.877058453052077 10.967742092220146 -6.7005327649145086 -1.713962731050617 -6.584563028841152 -6.5470204265568075 1.2245778631303843
5.2546132512811345 -5.606238873697261 -5.959328808950064 4.7173366982125975 -12.345206470865717 5.146457914071636 -1.808741955683502 -8.099596274685
3.5871892936229184 6.543544490402153 4.6305517273367345 -6.531896441827341 0.3326184854635911 -2.3766240887131076 -3.848486194335158 -3.588922763486716
2.891366994516324 -8.54175033631014 -4.8252816841219754 -2.9715791730999137 3.5753855185312218 -4.2341663576402295 -4.826248256770224 -3.939720105991502
-5.264999465646757 -12.410195871118292 2.311458163273726 1.4606490040768607 12.309285528490614 -1.7448817316342253 -1.327023516503338 -0.6486688615082226
5.114937808486358 6.209750565471141 -11.402426302001322 2.882587046626592 -6.788555785674708 0.964440244723432 -2.785974398912592 3.413278630851038
6.866985199741728 -9.965925593919431 5.073150971223389 -1.4439801058257435 0.99288741238281 9.807241641152679 -2.8502621932098586 8.190949486062562
5.687808958943001 5.423824171545807 -4.232824236006959 0.1798921458711222 -3.1730760125721047 -2.1981922189435785 1.0555804934244022 0.7146277799868272
-7.030117174485554 -5.48934414840334 -22.143954924311636 5.807700639326367 -3.792081710868396 -11.84574595109645 2.832512603649643 -6.183654933358504
-0.8346702329386295 3.650333975448489 -5.924419319095798 10.31803730948594 -4.70645676384974 9.151073874005027 -2.3161138591986723 5.322415835876433
1.5971152514521334 1.6013421677071502 -12.985949527775409 6.261914353585693 -8.154550598098407 -10.722656477353567 -9.9950838966728 9.598016512605478
-0.5985683938977876 4.577163255948507 -8.144316861152735 -11.939614267765643 0.5056584710797641 -8.900081318646592 7.749784905794082 2.7960555679845784
9.54399814772836 1.719614218804689 -4.9775173546003995 1.968375394560938 1.2069966582826706 2.8345522112896875 -7.4007496960678925 3.413589750844431
1.0877342850429588 2.5786938716109193 4.719874094930362 2.8978247707627363 -4.248695377785907 1.2064226544051806 -10.905312058275697 9.519266533078365
-7.904983848539457 8.337615922549885 8.992368126865262 10.532231476209965 9.242540341107762 -0.797627629684896 4.273296328316431 -0.7428452969235211
8.093728045583118 -7.193796240721415 0.8383346440914985 6.361521311694457 3.103184150332151 -0.7932279597919845 2.229771721955569 6.645463530753815
-7.739383429777832 -3.0563432364359455 6.350306085888566 3.9301168835823432 3.416101891597506 -2.526542748059583 2.251248085676696 5.453807351882292
0.17194844042995328 -3.4196109481782138 6.365502715824251 -2.5381892093475558 -1.9880879394401307 -0.4466108124591275 -2.6917250064915894 -2.4504407345062633
1.321669435241469 -3.809318012496766 0.5169023286509341 -6.857671103172063 -5.348425204556429 2.464843643838372 -9.189702752544761 3.592752247676061
-2.949745448527615 1.2567285739859742 5.043438839773848 3.4581683406961625 6.560989047160769 3.623010762125562 3.6427696193300068 6.2686114326333415
00000000: ec8d af2c b0ce d3bf b300 0b5c b6cf f6bf
00000010: b809 28dd 5936 f63f 5420 0246 1df4 1540
00000020: 679f b174 847d f4bf c10e 3ea7 0ca4 e83f
00000030: 01dc 1413 e1a3 26c0 39b9 7a60 b029 16c0
00000040: ff32 aa12 3c09 03c0 4fa9 5028 a881 2c40
00000050: 9c8d 32ea 4899 10c0 47e4 5cc4 80a7 07c0
00000060: d453 0f91 4cee 2340 f103 5dcd c812 2440
00000070: 78ad 8f3b 6d04 0b40 86d2 7145 25ab e9bf
00000080: 8521 2d6b 03c0 29c0 a012 429b 116f 06c0
00000090: 0bd5 9b6b 7d47 26c0 ebc1 33cc 9323 fb3f
000000a0: 963c 7e70 4d24 1640 4aa5 06e5 15a8 0ac0
000000b0: 3b0b 4d88 cfb3 17c0 ecba 1c85 d931 0d40
000000c0: fc6a 4717 bb8a c93f ec1c ea38 b52f 2340
000000d0: 0098 eba1 52cc 2840 e766 5369 5727 1840
000000e0: 63c7 f3c4 f31a ed3f 0057 bbde ae90 01c0
000000f0: ab1b ed6e 675f 0b40 6ded 4bd5 c210 29c0
00000100: fa75 e48c d16d 0440 a038 6305 1719 0a40
00000110: 3692 5e7e ad0d 24c0 44cc 1968 19e1 c4bf
00000120: 005f 608e eace 18c0 08b6 faac 4dbe 15c0
00000130: 4077 6d04 d70f 22c0 bb7e 600b cf80 1440
00000140: 8ee7 9c1e 262d 1440 a205 8128 564c 27c0
00000150: 9b12 a78c e6fd 1f40 505c 8de4 9f77 06c0
00000160: 1e93 a2ee 6584 1040 4076 2821 2eea 1040
00000170: d46f ed72 3549 13c0 932d 5202 5bc9 fcbf
00000180: c969 2600 b54f 0cc0 e8c6 8dd2 5d2a 13c0
00000190: 4af0 1a51 7218 ee3f 3ae3 02eb c0e2 1fc0
000001a0: 6e51 62df 85f8 ebbf de0b 7ca2 b8a7 1840
000001b0: ab09 7a3c 7657 d73f db56 a327 85e8 1340
000001c0: 5593 8491 701a 1440 b400 baae 0aa4 27c0
000001d0: 3e56 9d8e 5272 0b40 0add ffd5 661a 2040
000001e0: d9c0 aabb 14f2 14c0 d07f dcd5 9a56 f5bf
000001f0: be19 6f25 1888 f93f 327e adb7 b45d 2540
00000200: 6be4 81a8 2d8c 2440 11d5 a4f7 518e 0c40
00000210: e256 79b0 138f 2140 2bb6 6941 ad44 0ac0
00000220: 164b f6a1 33be 0e40 759f 4cdd 67af f4bf
00000230: 9874 ef55 e45d 0040 7eda 797a a531 eebf
00000240: 788d f65a dbfa fcbf 19ca 0294 183a fcbf
00000250: c27b 121b db92 dfbf 4a3b b5ee 9309 e03f
00000260: 23cd 0989 a2d4 23c0 67ac 2fa9 e7d7 0740
00000270: 20bd 8d35 78b3 a63f 966f 7375 53bf 12c0
00000280: 3cbb fed6 fd9f 20c0 bc9f 390a 1f97 26c0
00000290: 2a34 e044 7daf 18c0 d0b8 f811 cf5f 0540
000002a0: ea78 a3cc 4d1e 1640 229b b46c 57a6 f1bf
000002b0: bf2d a51e 7865 1a40 f435 a086 9050 1ac0
000002c0: 8033 c640 7be5 1140 9493 a7df 2961 08c0
000002d0: c799 a15d e02b 0e40 4038 1d7b c053 02c0
000002e0: 5c6a 8e3c c89a 1cc0 f67a 80b6 7a4e f03f
000002f0: 2a90 e11c 953c f5bf 4a2d dade 73c0 0a40
00000300: d7a5 3571 c78d 1f40 f527 729c 1b82 1bc0
00000310: a618 3ae4 7bef 2540 4b56 0c76 58cd 1ac0
00000320: cccd 462f 646c fbbf 374b cdb0 9756 1ac0
00000330: ca38 691f 2630 1ac0 1dcf 18f5 de97 f33f
00000340: d785 0d56 b904 1540 db5f 20e2 c96c 16c0
00000350: 6234 924a 5ad6 17c0 c72c ec82 8dde 1240
00000360: bf78 0de7 beb0 28c0 54b6 3c10 f995 1440
00000370: 0205 a967 9bf0 fcbf a926 6d48 fe32 20c0
00000380: cc5f e54c 90b2 0c40 feca 48ed 962c 1a40
00000390: ed63 1d5a af85 1240 5e07 fa75 a920 1ac0
000003a0: 7e1d 470b 9f49 d53f d044 7f7d 5303 03c0
000003b0: 4e37 3e21 b3c9 0ec0 f45c 4823 1db6 0cc0
000003c0: 8e73 d104 8521 0740 1d19 d24c 6015 21c0
000003d0: b02a 4da4 164d 13c0 c582 2f4d cbc5 07c0
000003e0: 0378 05b9 639a 0c40 8b8d 3f4e c9ef 10c0
000003f0: 0cd2 e405 144e 13c0 6a04 95f9 8b84 0fc0
00000400: 25a4 1905 5c0f 15c0 89d0 7631 05d2 28c0
00000410: bea9 0ac7 dd7d 0240 141f 777d d15e f73f
00000420: 8dfc 3bac 5a9e 2840 0b1c 4c1b 09eb fbbf
00000430: de79 c602 7d3b f5bf 5690 4333 e5c1 e4bf
00000440: 5e17 c241 b275 1440 7110 2cda c8d6 1840
00000450: b34a fcd1 0ace 26c0 5513 29cc 890f 0740
00000460: 862d fa2a 7b27 1bc0 6d11 c1c9 b1dc ee3f
00000470: 2d95 16f2 ac49 06c0 7e20 dd06 654e 0b40
00000480: e906 dcf7 ca77 1b40 b581 a8cc 8dee 23c0
00000490: e54c 9416 e84a 1440 fc89 29e2 8a1a f7bf
000004a0: 5e6a 99d2 bbc5 ef3f b470 c1c6 4e9d 2340
000004b0: 82e4 c643 56cd 06c0 47a7 8b21 c461 2040
000004c0: 5739 e2fd 50c0 1640 942c b0f6 feb1 1540
000004d0: dc76 fd79 69ee 10c0 0770 a9b1 b406 c73f
000004e0: 13c1 2dad 7562 09c0 8879 55cd e595 01c0
000004f0: 86da 185f a8e3 f03f 8068 fb13 3bde e63f
00000500: 80da 5d09 d71e 1cc0 7886 e7a1 16f5 15c0
00000510: 4204 dc3a da24 36c0 cc75 5be0 153b 1740
00000520: 1384 9fef 2e56 0ec0 0a5e 019d 05b1 27c0
00000530: d776 315e fca8 0640 6818 f209 10bc 18c0
00000540: d250 2d59 9eb5 eabf 3e3b a04c e233 0d40
00000550: 693a 5dfa 9ab2 17c0 c54c 46c9 d5a2 2440
00000560: 2c17 e366 69d3 12c0 6343 088e 594d 2240
00000570: af90 f8b3 6687 02c0 0735 7b60 274a 1540
00000580: 2ce0 ceb8 c88d f93f 9820 00f7 189f f93f
00000590: a39a 6260 cef8 29c0 9e03 bc46 330c 1940
000005a0: ded1 8841 214f 20c0 c8f3 a007 0072 25c0
000005b0: caf8 f1a2 7bfd 23c0 8d37 6838 2f32 2340
000005c0: 51ba 86e7 7827 e3bf c201 73e2 034f 1240
000005d0: 22d3 4de6 e349 20c0 1dd1 0d1f 15e1 27c0
000005e0: 5174 87ac 5a2e e03f c4a7 6675 d7cc 21c0
000005f0: 1bae 459d c7ff 1e40 fa56 b261 525e 0640
00000600: e027 dbec 8616 2340 2c0b f832 8a83 fb3f
00000610: e61f 354f fae8 13c0 c53e 9e32 777e ff3f
00000620: 2549 5bba db4f f33f 7a59 b2b5 29ad 0640
00000630: 62f9 d920 5e9a 1dc0 72b3 ae24 084f 0b40
00000640: 8ef5 cf10 5c67 f13f 57b7 a740 2aa1 0440
00000650: a1da bbac 26e1 1240 9ab7 dfc0 be2e 0740
00000660: 0007 4900 aafe 10c0 202e 5dd7 814d f33f
00000670: e8ef e50f 85cf 25c0 30f5 924d dd09 2340
00000680: 6e8a 0316 b49e 1fc0 d7eb 83fe dbac 2040
00000690: 4af5 d4ac 17fc 2140 7c72 e0a4 8010 2540
000006a0: 7c09 623f 2e7c 2240 7b3e fc60 2a86 e9bf
000006b0: 9df1 20fe da17 1140 0ec4 0880 63c5 e7bf
000006c0: b7fe 541f fd2f 2040 e4f1 8f85 72c6 1cc0
000006d0: d441 ef2c a3d3 ea3f 8c23 8aa4 3272 1940
000006e0: 1823 3936 52d3 0840 408a 329a 1f62 e9bf
000006f0: 19c2 7a8e 92d6 0140 af64 4d64 f494 1a40
00000700: 8166 08ee 20f5 1ec0 d6be 2e15 6473 08c0
00000710: b5ec 79a3 b666 1940 808c e31e e170 0f40
00000720: 5fb8 813a 2d54 0b40 1fe5 560b 5c36 04c0
00000730: e74f 395b 8e02 0240 4213 dcdf b2d0 1540
00000740: 5c57 1f10 6802 c63f 78c0 1bfc 5c5b 0bc0
00000750: e241 0c58 4676 1940 ada9 e924 364e 04c0
00000760: 6e7a 974c 35cf ffbf 0453 6384 4595 dcbf
00000770: 74a7 c51e a788 05c0 caec fbab 809a 03c0
00000780: 26c2 87d9 8e25 f53f 0de6 ddb8 7b79 0ec0
00000790: 3106 99c0 768a e03f 9c64 6b55 416e 1bc0
000007a0: 1ab0 aa93 c964 15c0 7250 c0f1 ffb7 0340
000007b0: 2848 1cb8 2061 22c0 8231 f3e3 f4bd 0c40
000007c0: 909b 4724 1499 07c0 e07e d36b 8f1b f43f
000007d0: c7d1 303b 7b2c 1440 22d2 ba29 54aa 0b40
000007e0: fae0 abe9 733e 1a40 2515 0311 edfb 0c40
000007f0: f713 ef65 6424 0d40 b7f7 19e0 0e13 1940
